data/models/stager.pt (torch, 633342 bytes, 32 tensors)

conv1.weight f4 [64, 1, 3, 3]
000000 64 82 11 3e d7 f3 1c be bc 6b ad 3e c5 4e 67 3e
       0.14209896 -0.15327393 0.33871257 0.22588642
000010 56 a2 46 bd 2b 3f 90 3e eb 69 54 3e 61 14 9a 3e
       -0.04849466 0.28173193 0.2074353 0.30093673
000020 9c 90 9b 3d 23 db 95 be fb 04 3f 3e a2 10 bb be
       0.075959414 -0.2926875 0.18654244 -0.36536127
000030 8c 9b 8b bd a8 30 c2 3e e0 1c fa 3d ea fe 7c 3e
       -0.068167776 0.37927747 0.12212539 0.24706617
000040 8f 73 3d 3d 64 99 82 3b 08 1d 30 3d ea a3 98 bd
       0.046252783 0.0039855707 0.042996436 -0.07453139
000050 2a c7 b0 be 66 76 e6 3d 0a 8a 79 bd 45 f9 2f 3e
       -0.3452695 0.112530515 -0.06092266 0.17184933
000060 f9 c1 4f be 7c b5 a1 be 39 38 46 3e 53 f5 60 bd
       -0.20288838 -0.31583774 0.19357385 -0.05492146
000070 0b 26 c1 bd 2d 1b 87 be 78 d1 96 3e a6 90 b4 bb
       -0.09431084 -0.2638792 0.29456687 -0.0055104075
000080 76 3b 6e 3c 29 73 2e 3d 97 99 48 3d ed e9 fb bd
       0.014540544 0.042590294 0.0489746 -0.12300477
000090 a8 9c c1 bd ad a0 d0 bd 35 a8 9d 3d 9e b6 8d 3e
       -0.09453708 -0.101868965 0.076980986 0.27678388
0000a0 03 34 2e be 3a 96 91 3e 8a a3 89 3e f3 9f ab be
       -0.17012028 0.28434926 0.26882583 -0.3352047
0000b0 f5 b5 86 be ae a4 d8 3d d9 7d 20 3e 7c e0 d0 bd
       -0.26310697 0.10578285 0.15673007 -0.10199067
0000c0 9e 58 66 be 57 8c df bd d8 e2 63 3d f2 ee 68 bd
       -0.22494742 -0.109154396 0.055636257 -0.0568685
0000d0 20 e2 8e 3e 65 04 5b bd 20 8e 68 bd 9d ce 36 3e
       0.27906895 -0.053470988 -0.056776166 0.17852254
0000e0 cf 90 e8 3c 78 ca 84 be b4 c8 62 be b2 17 65 3d
       0.028389363 -0.2593572 -0.22146875 0.0559308
0000f0 3d 42 8e 3e 30 0a b6 bd 0f 65 4b bd 64 41 85 be
       0.2778491 -0.08888662 -0.049656924 -0.26026452
000100 ab 89 f8 3d df d9 0b be fa 7a ea 3d 7a bc 91 3d
       0.12135633 -0.1365733 0.11449237 0.07116027
000110 da 05 81 3e 48 1b fe bd a4 1f 57 3e 7d 39 6d be
       0.25199777 -0.12407547 0.21008164 -0.23166461
000120 b2 8a a9 bd a0 39 9f 3e e6 cd 74 3e b5 8b c4 be
       -0.08278407 0.31098652 0.23906669 -0.38387838
000130 99 ba 9c 3d a7 6c 52 bd 56 62 70 be ca 40 24 be
       0.07652778 -0.05137315 -0.23475012 -0.1604034
000140 e9 d2 bc bd a7 f3 f3 bd 4e 79 a9 3d 1c 01 5d 3e
       -0.092199154 -0.11911707 0.0827509 0.21582454
000150 a9 a2 d2 be d0 52 0d 3e ee 07 91 bd 0a 3f 81 be
       -0.41139725 0.13801122 -0.070815906 -0.25243407
000160 10 52 94 3e 4f 5e 0e 3e b7 15 9b be 26 e7 e4 3d
       0.2896886 0.13903163 -0.30290005 0.111769006
000170 55 3d 86 3e 84 8e 2f 3e 45 04 20 3e 12 1f ba 3c
       0.26218668 0.17144209 0.15626629 0.022719894
000180 1f ee c7 bb 5b 67 50 3e a6 24 b8 be d3 67 a8 be
       -0.0061013843 0.20351927 -0.3596546 -0.32891712
000190 9d a3 ec bd 5c 5b 19 3e fd 3d 27 3e 8f 00 8f be
       -0.11554644 0.14976257 0.1633224 -0.27930114
0001a0 41 d6 55 be c8 19 5e 3e 8e 50 97 3e 35 a3 69 bd
       -0.20882513 0.21689522 0.29553646 -0.057040412
0001b0 eb ed 69 3e e6 1a 31 bc 4e 3c 51 3e ba f4 84 3e
       0.22844665 -0.010809636 0.2043316 0.25967962
0001c0 56 fc c0 bd d1 2a d2 3c 63 91 20 3e 2d 97 02 3d
       -0.09423129 0.025655182 0.1568046 0.031882454
0001d0 2d 8d 23 3e e6 36 ac 3d f5 50 2e be 9b ba a0 bb
       0.15971823 0.084089085 -0.1702307 -0.0049050576
0001e0 13 55 86 be 74 24 6c be 7a 7f c1 be ec c8 3e 3d
       -0.2623678 -0.23060781 -0.3779257 0.046578333
0001f0 14 cd 1e be 39 78 35 be d5 c2 97 3e 85 09 86 3e
       -0.15507919 -0.17721643 0.29640833 0.26179138
000200 20 3c 1e 3d c8 52 fa 3a ed a3 a3 3e c9 d8 8f 3e
       0.03863156 0.0019098157 0.31961003 0.2809508
000210 6f a5 24 be ce ad 8c 3e cf c6 a2 3d 14 f7 e7 3d
       -0.16078733 0.27476352 0.07948076 0.11326423
000220 c0 67 44 3e ef 95 b8 3c b1 81 d5 be 55 83 24 be
       0.19180202 0.022532431 -0.4170051 -0.16065724
000230 96 58 ab 3c 75 79 5a 3e 0a d4 e6 3d 6a b2 60 3e
       0.020916265 0.21335395 0.11270912 0.2194306
000240 00 5d ff bd 93 05 d3 bd 8f a3 86 bb 44 82 96 3e
       -0.1246891 -0.103037976 -0.004108853 0.2939626
000250 62 cf 8a be 53 67 55 3e ae 5e 1b 3e ea 5c ba be
       -0.27111346 0.20840196 0.15172836 -0.36399013
000260 e3 17 54 3e 96 f3 9e 3e d5 34 39 3e 0d d9 39 be
       0.20712237 0.31045216 0.1808656 -0.18149205
000270 f6 95 b7 3d 68 a8 ca 3c 08 12 27 be 84 59 96 be
       0.0896415 0.024738505 -0.16315472 -0.2936517
000280 5a eb 14 bd f4 51 3a 3c cc 8f f4 3d 6c 23 ef 3d
       -0.03635726 0.011372078 0.119414896 0.11676678
000290 51 ff 44 bd 1e af 44 3d e3 92 8a bd 44 60 43 be
       -0.04809505 0.048018567 -0.06766298 -0.19079691
0002a0 f1 d3 96 3e 84 90 93 be 32 2d 38 bd 80 cf 21 be
       0.29458573 -0.28821194 -0.044964977 -0.15801811
0002b0 a0 ab e6 bd 51 a5 1c be ff 6e 83 be 99 00 f2 3d
       -0.112632036 -0.15297438 -0.2567062 0.1181652
0002c0 66 92 37 ba dd 4d 8e 3e 3d 56 df bc 8b 40 89 3e
       -0.0007002711 0.2779378 -0.027262801 0.26807055
0002d0 85 85 fc bc fa 22 44 be cd 12 83 3e 4b 73 4c be
       -0.030825386 -0.19153967 0.2560028 -0.19965856
0002e0 b2 b6 53 3e ff 63 a3 bd 54 26 85 be e0 cd 82 3e
       0.20675161 -0.07978057 -0.26005805 0.25547695
0002f0 86 60 b9 3d d6 0c d1 3d 7d c6 48 3e 4a a0 2f 3d
       0.090516135 0.102075264 0.19606967 0.042877473
000300 79 da 9f be 8c 43 e3 bd b4 e5 d0 3d ef 62 e0 bc
       -0.3122137 -0.11096868 0.102000624 -0.027390925
000310 cd 5c ef 3c 81 d8 0e bc 9d 5d a5 3e 33 db fe 3d
       0.029219056 -0.008718611 0.32297984 0.12444153
000320 4b d6 87 3d 37 29 a6 bd 19 47 17 bd d8 93 92 bd
       0.0663267 -0.0811333 -0.03693304 -0.07157105
000330 64 8b d1 bd 27 38 17 be 2f e0 b1 bd 92 8e 8b 3e
       -0.10231665 -0.14767514 -0.08685338 0.2725721
000340 51 77 2c be e6 1e d2 3b 25 b8 0d be 0a fc 46 bd
       -0.1684239 0.006412375 -0.13839777 -0.048580207
000350 81 70 02 be ca d3 95 be 39 0a 07 3e 80 73 93 be
       -0.1273823 -0.29263145 0.13187493 -0.28799057
000360 99 d8 5b be 89 a1 e1 3d 48 62 17 be 5e c2 b3 3d
       -0.21469344 0.110171385 -0.14783585 0.08777307
000370 e1 cd ce 3e 32 71 9f 3e a3 46 59 3e aa a5 0c be
       0.40391448 0.3114105 0.21218352 -0.13735071
000380 29 35 bf bc f7 6c 11 be be f2 79 be 2a 05 53 3e
       -0.023340778 -0.14201723 -0.24409005 0.20607439
000390 18 e1 4b bd cf 72 47 bd 1c b1 72 3d 16 b1 da be
       -0.049775213 -0.048693474 0.059250936 -0.4271323
0003a0 ff d7 87 3e de 42 5c be 2a 8f 82 bd 4f 36 96 3e
       0.2653198 -0.21509883 -0.06374963 0.2933831
0003b0 be 3f 05 be f2 61 df bd e7 1d 95 be db 5a 26 be
       -0.13012597 -0.109073535 -0.29124376 -0.16245596
0003c0 bd 83 7a 3e 80 90 db 3d 26 b2 d3 be b0 02 90 3d
       0.24464317 0.107209206 -0.41346854 0.070317626
0003d0 ec e6 33 3e 5c 0b 82 3c 3c 4c 65 3e 18 de 46 3e
       0.17568558 0.015874557 0.22392362 0.1942066
0003e0 ab 66 49 3e 07 94 ab 3d 55 39 7d 3e 36 c8 07 be
       0.19668071 0.08377843 0.24728902 -0.13259968
0003f0 0f cb a2 3e c3 82 88 be 20 8f cd bc 69 d7 84 3e
       0.31795546 -0.26662263 -0.025092661 0.25945595

conv1.bias f4 [64]
000000 7b d1 cf bd 89 a2 51 be 1d a0 29 3d de 7a a9 be
       -0.10147377 -0.20472158 0.04141246 -0.33101553
000010 11 ec f9 3d bc a4 66 3d 2d 5c a3 3c e8 5c a7 be
       0.12203229 0.056309447 0.019941414 -0.3268807
000020 2a 6d 7f 3b d4 a1 09 3d ea 7c 9d bd c0 ae c8 3d
       0.003897498 0.033601597 -0.07689841 0.09798956
000030 de 7b a5 be e0 1a cc 3d f4 21 85 3e 0c 2c 95 3d
       -0.32321066 0.099660635 0.26002467 0.07283792
000040 d4 bd 83 bd 82 a9 8b be 45 4c 17 3d 36 57 9a 3d
       -0.06432691 -0.27277762 0.03693797 0.075361654
000050 29 9f 8c 3d 4f a5 a8 bd 9f c7 04 be 9d dc 6c 3d
       0.06866295 -0.08234655 -0.12966774 0.05782758
000060 81 01 46 3e ec 37 3d 3d 3e 76 76 3d 90 e2 55 3e
       0.19336511 0.04619591 0.06017136 0.20887208
000070 d0 57 9f bd 16 9a d5 3d b9 c9 4b 3e 85 55 d4 3c
       -0.07780421 0.1042978 0.1990117 0.025919685
000080 66 d9 a1 bd aa a2 1c 3e bd fd 6d bd f4 97 98 3d
       -0.079027936 0.15296426 -0.05810331 0.07450858
000090 08 80 f5 3d 7e ab 56 be 35 bc c4 3d c1 34 01 3d
       0.11987311 -0.20963857 0.0960621 0.03154445
0000a0 d0 77 a4 3e 40 f1 94 3d 71 8f 09 be 6e dd a0 be
       0.3212266 0.07272577 -0.13433625 -0.31418937
0000b0 59 b3 54 be c5 2c b8 3e e2 99 7f be 74 80 0a 3e
       -0.2077154 0.35971656 -0.24961045 0.13525563
0000c0 ae f0 c7 3e eb 72 07 bf 37 c9 8e bb e5 72 2d 3e
       0.39050812 -0.52909726 -0.004357483 0.1693836
0000d0 e1 8e 1c 3e a3 91 80 be eb 2a 26 be a6 b6 8f 3e
       0.15288879 -0.25111112 -0.1622731 0.28069037
0000e0 e9 2d 11 be 83 0c 32 3e 1c 37 3b 3e 88 7a a1 bd
       -0.1417767 0.17387585 0.18282741 -0.07884699
0000f0 00 d7 98 3e 96 ce 32 bc 87 9f f8 3d 97 54 8a bd
       0.29851532 -0.010913512 0.121398024 -0.067544155

bn1.weight f4 [64]
000000 36 6a 70 3f 39 f3 6f 3f 3f 19 96 3f 56 22 4f 3f
       0.93912065 0.93730503 1.1726454 0.8091177
000010 06 db 87 3f c0 2c 49 3f 3d 7a 89 3f b9 e4 6d 3f
       1.0613716 0.7858391 1.0740429 0.9292713
000020 49 c5 86 3f 7c a5 6b 3f 17 c6 68 3f b9 08 87 3f
       1.0528957 0.92049384 0.9092726 1.0549537
000030 a9 32 71 3f 53 ab 8a 3f 51 1e 38 3f 97 cf 3f 3f
       0.94217926 1.0833534 0.7192126 0.7492613
000040 9f d0 8b 3f f8 56 4f 3f c1 63 8e 3f 3f 67 73 3f
       1.0923041 0.8099208 1.1124192 0.95079416
000050 6c e0 42 3f 10 89 73 3f 70 34 72 3f fa 30 93 3f
       0.7612369 0.95131016 0.94611263 1.1499321
000060 bd 8c 2f 3f 6e e9 8d 3f 67 19 96 3f e4 7f 2f 3f
       0.68574125 1.1086862 1.1726502 0.6855452
000070 ae db 85 3f 72 6b 91 3f 6d ce 86 3f 40 6a 96 3f
       1.0457666 1.1360915 1.0531746 1.1751175
000080 32 a1 8c 3f 22 aa 30 3f 8c c7 80 3f 73 8e 81 3f
       1.0986693 0.690096 1.0060897 1.0121597
000090 8c e1 6b 3f 7a e1 59 3f 7a 2e 80 3f 86 58 80 3f
       0.9214103 0.85109675 1.0014184 1.0027015
0000a0 e8 40 3d 3f fb ee 90 3f 79 5f 44 3f bf 39 64 3f
       0.73927164 1.1322931 0.7670818 0.89150614
0000b0 20 9d 72 3f 61 d8 46 3f 76 e1 2e 3f 50 71 66 3f
       0.94771004 0.7767392 0.68312776 0.9001665
0000c0 9d 26 25 3f 59 1c 74 3f 5a 69 54 3f f7 ea 38 3f
       0.64512044 0.95355755 0.82973254 0.7223353
0000d0 f0 e5 68 3f 79 d3 75 3f a7 c0 6e 3f 54 d2 40 3f
       0.90975857 0.96025807 0.93262714 0.75320935
0000e0 a2 6d 87 3f f8 07 82 3f f7 b1 60 3f b5 50 89 3f
       1.0580332 1.0158682 0.8777155 1.0727755
0000f0 0a 31 53 3f 13 21 21 3f 18 1a 60 3f fc 63 73 3f
       0.824967 0.6294109 0.87539816 0.9507444

bn1.bias f4 [64]
000000 5c 0c af 3a fa 7b 86 3e 18 62 ae bd ae 11 7f bc
       0.0013355124 0.26266462 -0.08514804 -0.01556818
000010 41 71 27 3e b7 44 40 3e 93 d4 7a 3e e9 9f 89 3d
       0.16351797 0.18776213 0.24495153 0.067199536
000020 d3 ca 3d be d7 ee 34 3e e3 24 9c 3d 20 80 bf 3d
       -0.18534403 0.17669235 0.07624223 0.0935061
000030 a3 47 ad bd 92 82 0d be 84 18 a0 3d f9 df 87 3e
       -0.08460929 -0.1381934 0.07817176 0.26538065
000040 0f 4c 78 3e af fd 78 3e df f8 93 3e f9 23 16 be
       0.24247764 0.24315523 0.2890081 -0.1466216
000050 9d 07 5c 3e 41 9e 01 3e fa d8 63 3e 73 e4 09 be
       0.21487279 0.12658025 0.22250739 -0.13466053
000060 2f aa e7 3d 09 0c b8 bc 5c d3 bf bc 85 c1 1c 3e
       0.11311757 -0.022466676 -0.023416214 0.15308197
000070 3a ae 7a 3e 72 c2 8a bd 21 eb 67 3c c4 fa fd 3c
       0.24480525 -0.06775369 0.01415518 0.031003363
000080 82 5f 14 be 79 24 89 3e f7 92 02 3e 39 76 f2 3d
       -0.14489558 0.2678564 0.12751375 0.118389554
000090 f7 f7 ba bd e2 5e 2b 3e 74 a5 0a 3e 06 28 ee 3d
       -0.09129327 0.16735414 0.13539678 0.116287276
0000a0 0c f1 41 3e 4e 05 79 bd 17 02 8a be 62 42 a4 3d
       0.18939608 -0.060796075 -0.2695472 0.08020474
0000b0 36 b1 26 bc 3e 14 11 3e 20 77 81 be 74 0c 13 3c
       -0.010174086 0.14167878 -0.25286198 0.008975137
0000c0 72 77 46 3e c5 c4 48 be ac e9 66 be 9f fa 38 3e
       0.19381502 -0.19606312 -0.22550076 0.18064354
0000d0 d9 32 2b be 75 19 55 bd 84 1c a1 3d 8d 50 58 3e
       -0.16718616 -0.05202623 0.07866767 0.21124478
0000e0 ca b9 39 3d 37 bf 31 be fd f3 14 3d ea 8d 41 3e
       0.045343198 -0.17358099 0.036365498 0.18901792
0000f0 27 cb 4a 3e da 43 3c be ea 53 dd bd f4 ba 3d 3d
       0.19804059 -0.18385258 -0.10807021 0.04632087

bn1.running_mean f4 [64]
000000 92 c1 3f 3e 55 cf f4 bc a9 c3 0e 3b 4b 81 92 bd
       0.18726185 -0.02988402 0.0021784103 -0.07153567
000010 9b 58 e4 3d b1 c8 87 3d 01 87 e5 3b 2f 84 84 bd
       0.11149713 0.06630076 0.007004619 -0.064705245
000020 fe 60 34 bc 6e 04 22 3d c2 f2 b1 3b ca d2 90 3d
       -0.011009453 0.039555006 0.0054305503 0.07071455
000030 8f 8f e0 bb 05 df b4 39 cb 48 06 3f ad 51 08 3e
       -0.006853051 0.00034498438 0.52454823 0.13312407
000040 0e 0a 43 bc 49 30 68 bd be c4 ed 3c d8 b2 8c 3d
       -0.011904253 -0.056686673 0.029024478 0.06870049
000050 e9 05 a0 3d df ac 80 bc 97 02 d6 bc e2 9a 54 3b
       0.07813627 -0.015707431 -0.026124282 0.003244095
000060 c1 90 9d 3e a1 c5 29 35 f9 c2 33 3c b9 70 d3 3e
       0.307745 6.3244994e-07 0.010971778 0.41296938
000070 96 70 f7 bb 7c 52 cb bb f4 91 45 3e 68 62 15 ba
       -0.007551263 -0.0062049013 0.19293958 -0.00056985626
000080 9f 46 a4 bc b9 78 a0 3e 16 3f 00 bc 11 9a 93 3d
       -0.020053206 0.31342104 -0.007827541 0.0720712
000090 d4 76 f4 3d af aa dc 3b 5d 28 8f 3d c6 9f d3 3c
       0.11936727 0.0067342143 0.069901206 0.025833022
0000a0 a1 c9 b0 3e 74 68 b0 3a 0a 4d 3f bd 83 b7 c2 b9
       0.3452883 0.0013458864 -0.04670433 -0.0003713929
0000b0 6c 2f 53 39 74 a6 ce 3e 05 cc 89 bd fc 4c 05 3e
       0.00020140194 0.4036137 -0.06728367 0.13017648
0000c0 a0 fa cb 3e be 0c e2 bd d6 ca 42 bc e4 bd cb 3e
       0.3983965 -0.11037587 -0.01188918 0.39793313
0000d0 8a 52 0d 3e 50 43 90 bb 4d 5a 06 3c 00 bd 9a 3e
       0.13801017 -0.0044025555 0.00820024 0.3022232
0000e0 4c e0 12 bd 71 72 29 3e c6 68 36 3e 60 f4 15 bc
       -0.035858437 0.16547562 0.17813405 -0.009152502
0000f0 4d 04 a5 3e 84 ed 67 bd 36 94 98 3d b7 36 2a bc
       0.32229844 -0.056622997 0.07450144 -0.010389022

bn1.running_var f4 [64]
000000 cc e7 4c 3d f6 c6 00 3a 9f 8d 8f 3a 2a 37 92 38
       0.050025746 0.000491246 0.001095224 6.9720976e-05
000010 0a da bb 3a e2 79 11 3a f7 25 a5 39 7d be 42 38
       0.0014331948 0.0005549473 0.00031499538 4.643061e-05
000020 89 d2 2a 3a 4b 91 c3 3a 38 06 ba 3a f1 39 f4 3a
       0.00065163575 0.001492062 0.0014192527 0.001863299
000030 9c 16 e6 3b 4d 6e c9 3b c6 df 87 3d ca 21 8c 3b
       0.007021738 0.006147182 0.06634478 0.004276489
000040 53 b4 cb 39 1a ce a8 38 4a d3 44 3a 06 b7 ae 3a
       0.0003885353 8.049254e-05 0.0007508291 0.0013329692
000050 b6 f4 94 3a 9a 44 af 38 e6 ea 09 39 43 6a ff 3a
       0.0011364433 8.357428e-05 0.00013152845 0.0019486625
000060 99 29 60 3c e5 9c c7 3a f9 51 f3 3a 7b 5a 22 3d
       0.013681793 0.0015229253 0.0018563858 0.03963707
000070 ad ed 0c 3a b3 78 f7 3b 4d 01 36 3a 6d 5e 2e 3a
       0.00053759926 0.0075522303 0.0006942943 0.0006651644
000080 e7 9d 07 3a ef bc d3 3c 40 39 60 39 fa fa 05 3a
       0.00051733706 0.025846926 0.00021383632 0.0005110946
000090 d7 50 91 3a ba 3f ae 3b 72 f5 02 3b ef 77 0d 3a
       0.0011086714 0.0053176554 0.0019982723 0.00053965946
0000a0 85 79 a6 3a e4 1b 51 3b c4 6e eb 39 92 ad 10 3c
       0.001270101 0.0031907493 0.0004490522 0.008830445
0000b0 d6 d7 8b 3b 2c 7d 40 3b 9e 89 a3 39 b3 66 2f 3a
       0.004267673 0.0029371483 0.00031192316 0.00066910236
0000c0 27 01 f2 39 ce fe b4 38 4c 40 d3 39 93 b9 4c 3d
       0.00046158695 8.63053e-05 0.0004029296 0.049981665
0000d0 16 80 90 3a 2b db a1 3b 45 84 63 3b 70 3d b6 3a
       0.0011024501 0.004939457 0.003471629 0.0013903808
0000e0 4c ea c7 39 d5 05 c4 3a 74 a3 1a 3b 13 db 9b 39
       0.00038130803 0.0014955351 0.002359596 0.00029727127
0000f0 bc 04 ab 3a 5d e9 34 3b f5 1a 0c 3b 63 11 b9 39
       0.0013047676 0.0027604916 0.0021378372 0.00035298904

conv2.weight f4 [64, 64, 3, 3]
000000 a7 ac 7b bd 41 42 6c bd 23 49 c0 bd a5 b6 0e bd
       -0.06144395 -0.057680372 -0.0938895 -0.034842152
000010 f2 80 ba bd 19 ec 09 bd e5 ec ab bd 74 cf a6 bd
       -0.091066256 -0.033672426 -0.083947934 -0.08145037
000020 9f f3 6c bd ea a6 2b bc b5 52 15 3d d8 59 c4 bc
       -0.057849523 -0.010476807 0.03645583 -0.023968622
000030 8a ec c2 bc c4 0c a9 bb d6 44 ff 3c ea cf 8c 3c
       -0.023794431 -0.0051589925 0.031160753 0.017188985
000040 9e 4a a3 bd 7c b9 60 bd bc fd 63 bc c2 c6 85 bc
       -0.079732165 -0.05486439 -0.013915475 -0.016330127
000050 18 cd 8e 3c 4a 73 bf bd 2e 38 f6 b9 a3 29 29 3d
       0.01743178 -0.093481615 -0.00046962633 0.041299473
000060 08 d0 6d bd c7 54 04 bd 94 ad c8 3c 92 49 00 bc
       -0.058059722 -0.032307412 0.024496831 -0.0078300405
000070 46 da 31 3d 23 7c 31 bb f9 2c bc 3c 4b 7e b9 3c
       0.043421052 -0.0027082048 0.022970663 0.022643229
000080 24 d3 26 3d e8 d0 8e 3c 83 34 b5 bb 96 c3 d8 bc
       0.040728703 0.017433599 -0.0055299415 -0.02646045
000090 15 75 67 bd 11 05 75 3c 8a 3f c0 3d f9 50 a1 bd
       -0.056508143 0.014954821 0.09387119 -0.078767724
0000a0 be 55 71 bd 85 c7 c3 ba d3 9c 2d 3c 48 12 2d bd
       -0.05891966 -0.0014936781 0.010596472 -0.042253762
0000b0 10 20 f5 3d 60 49 9a 3d 9b 16 74 3b 94 fb 1f bd
       0.11969006 0.075335264 0.003724492 -0.039058283
0000c0 11 3e b4 3c ab 85 74 3d 9a 6f 2c bd 18 58 4a bc
       0.022002252 0.05969779 -0.04209862 -0.012350105
0000d0 75 f2 6b bc e3 fb 92 bd 36 8e 99 bc f6 e1 31 3d
       -0.014401068 -0.0717695 -0.01874457 0.043428384
0000e0 d1 4a 76 3d 26 0f 6f 3d 12 f6 8a bb 25 9f a0 3d
       0.060129944 0.058364056 -0.0042407596 0.078428544
0000f0 4f 51 ad bb 5d 3c 16 3d 07 f4 f1 3d c2 cb 49 3d
       -0.0052892338 0.03667866 0.11814123 0.049266584
000100 41 22 45 3d 9e aa 01 bc 05 da 22 3d b1 5e 4b bb
       0.04812837 -0.007914213 0.0397587 -0.0031031782
000110 28 4d cc 3b 0b 67 15 3c 12 8b 13 bd 60 8d 47 bd
       0.0062347837 0.009118806 -0.0360213 -0.04871881
000120 7a 23 04 bb 98 5c 9f 3a 73 51 05 3d cb b8 5a bd
       -0.0020162747 0.0012158332 0.03254838 -0.05339889
000130 b4 a6 a5 bc 58 32 30 bc 58 36 0d 3d f9 f3 f1 3d
       -0.020221092 -0.01075419 0.034475654 0.11814112
000140 00 f2 8d 3d 26 fd 1b bd 43 6f eb bc 8d d0 21 bd
       0.069309235 -0.038083218 -0.028739577 -0.03950553
000150 d9 b7 d0 ba b5 00 d1 3c ae f0 6d bc 0f a2 21 bd
       -0.0015923931 0.025513032 -0.014522715 -0.03946119
000160 ed 57 ee ba 8c 81 7b bd 6c cc 26 bd a0 fd 0f bd
       -0.0018184163 -0.061402842 -0.040722296 -0.035153985
000170 1b 76 b9 3b c9 a9 5e 3c c4 4e 05 bc 8e 9c a8 bc
       0.005659831 0.013590285 -0.008136455 -0.020582464
000180 15 4b 64 bd 0c 9c 2d bd 9f 3d 29 bb 86 e7 b5 bc
       -0.055735666 -0.042385146 -0.0025824083 -0.022205126
000190 19 63 8b 3c 68 49 52 3b 04 7f b7 3d 89 08 55 3d
       0.017015027 0.003208721 0.08959773 0.052010093
0001a0 df 64 e4 3d 52 89 82 bd a8 75 d9 3b 1b fe 4e bd
       0.11152052 -0.06373848 0.00663634 -0.050535303
0001b0 53 9f c1 3c 94 c2 67 3c 92 e8 af bc 7d 2e 59 bd
       0.023635542 0.014145512 -0.021473203 -0.05302285
0001c0 c7 68 dc bc 05 df b3 bc b7 3a a9 ba da ec 7a bb
       -0.02690543 -0.02195693 -0.0012911175 -0.0038288147
0001d0 48 f4 87 3c 90 0c 96 bd d7 b5 b6 3c 4b 7c a4 3d
       0.016595975 -0.07326615 0.022303505 0.080315195
0001e0 f7 0c e8 3b f3 58 f7 3b de 3f c3 3d 97 a6 1c bd
       0.0070816237 0.0075484454 0.09533666 -0.03824481
0001f0 c0 ff 45 bd bd 0c 09 3d bb 3f b0 3c e4 21 03 bd
       -0.048339605 0.033459414 0.021514764 -0.032014742
000200 64 90 99 bd 81 87 c3 3c 7e 1b 40 3c bc 7d 9f bd
       -0.074982435 0.023868324 0.011725305 -0.07787654
000210 4f 41 a7 3c 8c f2 19 bd ae 6a 85 bd 41 76 ef bc
       0.020416884 -0.037584826 -0.06514488 -0.029231193
000220 21 43 00 3c fe 1a bd bd cd 15 78 3c ac 8a b0 3c
       0.007828505 -0.09233664 0.015141916 0.021550499
000230 e2 64 8c bb bc 7c c0 bc 08 b3 1e bc f8 60 17 bd
       -0.004284487 -0.023496978 -0.009686239 -0.03695771
000240 9d 2b a6 bd 84 b9 bf bd e5 2c 16 3b ec a2 3e be
       -0.08113787 -0.09361556 0.0022914943 -0.18616837
000250 3b 00 2b bc 86 6a 9b 3d 51 69 b1 bd c4 d3 db bd
       -0.010437067 0.07588677 -0.08662666 -0.107337505
000260 17 b3 db 3d cc ae d4 3c 49 33 56 bc 01 fe 21 3d
       0.10727518 0.025962256 -0.013073751 0.039548878
000270 cb d4 ab bc c7 d0 d9 3d e9 1f bb 3c bc 88 b1 3c
       -0.020975491 0.10635524 0.022842364 0.021671645
000280 d2 57 d5 3c 50 a4 b6 3d ac 84 58 bd 38 67 12 3d
       0.026042853 0.08918059 -0.0528609 0.03574297
000290 23 23 5e 3d a4 29 95 bc 87 b4 3a bc d3 74 60 3d
       0.054232728 -0.018208332 -0.01139558 0.054798912
0002a0 35 61 b2 3c 83 fe d0 3c 18 1d 10 3e 2e a1 89 3b
       0.021774868 0.025511986 0.14073598 0.0042001223
0002b0 21 7e 36 bd cd b9 10 bd 93 80 e0 3c c7 3d 9a 3c
       -0.04455388 -0.035333443 0.027405059 0.018828286
0002c0 09 02 25 3c 2b 61 7f bd 06 eb c5 bd 15 a9 c9 bd
       0.010071286 -0.062348526 -0.09663968 -0.09846703
0002d0 53 2f 5c bd 47 ca 1d bd 8b d6 13 bd 2a 74 be bb
       -0.05375607 -0.038522985 -0.036093276 -0.0058121877
0002e0 7d d4 cf bb 62 f8 c9 3a ad 9f 39 bd 16 76 18 bd
       -0.0063424692 0.0015409107 -0.045318294 -0.03722199
0002f0 09 00 a4 bd 10 1d d6 3c 97 c7 01 bd f2 3f dd 3b
       -0.08007819 0.026136905 -0.031684484 0.0067520076
000300 fb eb f1 3c e2 33 0d 3c 97 a0 4e bc 12 a5 6a 3d
       0.02953147 0.008618327 -0.01261153 0.05728633
000310 ae 56 d9 bc d7 20 a8 3d 1b de e0 bb a0 a1 8b bc
       -0.02653059 0.08209389 -0.0068624145 -0.017044842
000320 bb 2e 3d 3c de 9d d5 3c 38 29 c1 3c 60 90 9b bc
       0.011546786 0.026076254 0.023579225 -0.018989742
000330 39 eb bb 3b 14 01 ac bc 94 5b d5 3d 7d 76 86 bd
       0.005734828 -0.020996608 0.10417858 -0.065655686
000340 49 e9 0e bd 58 75 2a 3d cb 39 58 bd c0 9d 40 bd
       -0.034890447 0.041615814 -0.05278949 -0.047025442
000350 66 6a a5 3c ea b5 88 bd 9b e2 3e bb b7 28 74 3d
       0.020192336 -0.06675322 -0.0029126767 0.05960914
000360 cf 39 eb bc 70 33 2e bc f2 8e 59 bd 72 0e c9 bc
       -0.028714089 -0.010632381 -0.05311484 -0.02454302
000370 cc b8 24 bc 85 e8 45 bd 92 a3 03 bd ce d8 96 bd
       -0.010053825 -0.04831745 -0.032138415 -0.07365571
000380 a6 7e c3 bd 1b 35 ad bd d6 cb cd ba a6 f2 dd 3c
       -0.09545641 -0.08457395 -0.0015701007 0.027093243
000390 a9 1a 4d bd 93 f7 b4 bd ca 90 c8 bc c4 ac e0 bd
       -0.050074253 -0.088362835 -0.024483103 -0.109704524
0003a0 b6 52 59 bd 68 4b 32 bd b5 e7 7a 39 fc af d1 3d
       -0.053057395 -0.043528944 0.00023928176 0.102386445
0003b0 a8 4a ca 3d ca a6 a3 bc c3 01 9f 3d 4e 1d b5 3d
       0.09877521 -0.019976992 0.07764008 0.0884348
0003c0 df 16 85 bd a5 e9 2e bb 37 f7 55 3d 6b d3 b0 3c
       -0.06498503 -0.0026689556 0.052237716 0.021585187
0003d0 63 4c 0b bd d3 cd b3 bd 13 12 c1 bc 7a 80 d7 bc
       -0.034008395 -0.08779492 -0.023568189 -0.02630638
0003e0 74 3a b2 bd 54 17 5f bc c7 1a 7f bc 3a 97 09 bd
       -0.08702555 -0.013616402 -0.015570349 -0.033591487
0003f0 98 98 6f bd ed cc 3d bd 3f a6 bb 3c ee 94 92 bd
       -0.058495134 -0.04633801 0.02290642 -0.07157312

conv2.bias f4 [64]
000000 d2 03 8e 3d 15 c3 85 ba 45 82 28 be 3b 99 0f 3c
       0.069343224 -0.0010205234 -0.16455944 0.00876456
000010 87 ad 21 be 71 58 24 be bd 49 28 be bf 00 fe bd
       -0.15788852 -0.16049363 -0.16434379 -0.12402486
000020 3a e6 a1 bc 14 7a ee bd 88 dc f0 bc 94 ef fd bd
       -0.0197631 -0.11644378 -0.029402032 -0.123992115
000030 04 c1 22 bc 39 e3 3c be b7 26 4a be 3a 5b f4 bc
       -0.009933714 -0.18446054 -0.19741331 -0.029828656
000040 8e 9b 4f bd 14 00 e2 bd c5 5f 57 bd 7b 34 39 be
       -0.050685458 -0.11035171 -0.052581567 -0.18086426
000050 9c d5 b0 bd 52 7b 8d bd f1 60 cc bd 32 6c 52 be
       -0.08634493 -0.06908287 -0.099794276 -0.20549086
000060 37 b2 18 be fb 58 99 bd 28 60 1d be da c0 8f be
       -0.14911734 -0.07487675 -0.15368712 -0.28076822
000070 27 46 e6 bd a6 f6 5d be e2 62 51 be dc 0b 1b be
       -0.11243849 -0.2167612 -0.20447877 -0.15141243
000080 48 d0 3a be 8f 0d 85 bd a4 e2 38 be b5 a0 af bd
       -0.18243515 -0.06496727 -0.18055207 -0.08575574
000090 42 10 9d bd 46 81 44 bd a9 c6 01 be d3 95 22 be
       -0.076691166 -0.047974847 -0.12673439 -0.15877466
0000a0 c2 a1 ff bd 52 77 cf bd 4f a8 51 bd 7f 23 f5 bd
       -0.12482025 -0.101301804 -0.051185902 -0.11969661
0000b0 a8 bc 0e bd eb 16 9d bd e5 37 92 bd e2 32 31 bd
       -0.034847885 -0.07670387 -0.07139567 -0.043261416
0000c0 a0 0e fd bd 59 28 2c 3c 51 f5 34 be 3e 16 80 bd
       -0.12356305 0.0105076665 -0.17671706 -0.06254242
0000d0 bc 39 a9 bd 99 83 09 be 0d d7 28 3d e6 17 73 be
       -0.08262965 -0.13429107 0.041220713 -0.23739585
0000e0 d9 21 27 bd 1d 25 da bc a5 92 9e bd 0b ae 82 bc
       -0.040803764 -0.026629025 -0.07742814 -0.01595213
0000f0 7d 47 b9 3b 15 52 d9 bd 15 bc f1 bd db ce 41 be
       0.005654274 -0.10611359 -0.11803452 -0.18926565

bn2.weight f4 [64]
000000 ae 10 81 3f 08 96 54 3f ba c9 81 3f 9c 94 70 3f
       1.0083215 0.8304143 1.0139687 0.9397676
000010 da 46 70 3f b0 db 80 3f 5a ec 72 3f e3 3a 44 3f
       0.9385811 1.0067043 0.94891894 0.76652354
000020 55 92 71 3f 67 70 89 3f 3a 90 61 3f a0 49 80 3f
       0.9436391 1.0737427 0.881107 1.0022469
000030 e6 b7 74 3f 26 8a 7a 3f 85 6e 82 3f a8 47 72 3f
       0.95593107 0.9786705 1.0189978 0.9464059
000040 99 58 6b 3f 11 39 57 3f da f8 71 3f c0 b0 84 3f
       0.91932064 0.8407145 0.9452034 1.036644
000050 e2 55 6e 3f 40 c4 63 3f c3 9b 87 3f 38 67 8b 3f
       0.93099797 0.8897133 1.059441 1.0890875
000060 42 5c 6d 3f b1 ad 50 3f 67 25 70 3f c9 35 88 3f
       0.927189 0.8151503 0.9380707 1.0641414
000070 2c 8c 5e 3f 38 69 8a 3f 9c 2c 82 3f dd 0d 73 3f
       0.86932635 1.081336 1.0169864 0.9494303
000080 b5 ac 88 3f ee 47 61 3f fb 76 87 3f a3 8e 69 3f
       1.0677706 0.8800038 1.0583185 0.9123327
000090 34 b0 5c 3f 4e 37 71 3f f0 5b 6c 3f 86 dd 84 3f
       0.86206365 0.94225013 0.92327785 1.0380104
0000a0 9e 1d 88 3f 01 52 67 3f fb bf 76 3f 1a 68 91 3f
       1.0634038 0.90359503 0.9638669 1.1359894
0000b0 57 f4 7b 3f eb 33 55 3f f7 4e 78 3f 9d 38 83 3f
       0.9841971 0.83282346 0.9699549 1.0251652
0000c0 51 30 87 3f d9 d9 82 3f c8 f0 68 3f 65 30 52 3f
       1.056162 1.0222732 0.90992403 0.82105094
0000d0 cd 35 7d 3f 22 e2 87 3f 2a 8d 58 3f 08 e6 86 3f
       0.9891022 1.0615885 0.845904 1.053895
0000e0 2d fd 80 3f f6 f9 79 3f cf 48 6f 3f eb f1 7d 3f
       1.0077263 0.97647035 0.9347047 0.9919726
0000f0 4c 5a 48 3f e7 d4 8c 3f 9e f7 81 3f 5c 9d 84 3f
       0.7826278 1.1002473 1.0153692 1.0360522

bn2.bias f4 [64]
000000 f5 11 12 bd 35 d6 5a be ab 3f c5 bd e2 b5 e2 be
       -0.035661656 -0.21370776 -0.09631284 -0.4427939
000010 06 f6 a7 3e ba 49 83 bd 43 28 6f 3e e7 37 84 3e
       0.32804888 -0.064105466 0.23355202 0.258239
000020 a8 65 9a bd 39 4c b9 be 10 37 7d 3e ed e3 ce be
       -0.07538921 -0.36190966 0.24728036 -0.4040827
000030 03 6c 59 be 3e ff 0c 3e fc 8b b3 3e 38 dd b1 3e
       -0.2123261 0.13769242 0.35067737 0.3473909
000040 83 9d 8a be f0 3a f1 be f0 6b 35 3e 6f ff a0 3e
       -0.27073297 -0.47115278 0.17716956 0.3144488
000050 4c e8 22 3e f9 7b f1 3d db ff fd be bc a4 b4 be
       0.15908927 0.11791224 -0.49609265 -0.35281932
000060 d8 2d 05 3f c4 81 e5 3d 0b d5 a4 3e dd f8 b7 bd
       0.52023077 0.112063915 0.3219379 -0.08983014
000070 cc 93 97 be 37 c0 4b 3e 25 c4 42 be d9 40 40 bc
       -0.29604948 0.19897543 -0.19020136 -0.011734211
000080 54 24 a3 be 89 24 a0 3e 5d d5 09 3e 41 49 1e be
       -0.31863654 0.31277874 0.13460298 -0.15457632
000090 93 68 b2 3e f4 6e 78 bd 0f f8 b9 3d 5a b1 bf be
       0.3484541 -0.06065269 0.090805165 -0.37439996
0000a0 d6 de 68 3e d3 10 1f bc 71 69 66 be 6c 92 26 bd
       0.22741255 -0.009708601 -0.2250116 -0.040666983
0000b0 df a1 9c 3e 54 91 fd bc aa 05 5c be 5d 7b c6 3e
       0.30592248 -0.030953087 -0.21486536 0.38765994
0000c0 ad 91 9f 3e d0 c9 ce be 65 84 06 3e d1 4f 5e be
       0.3116583 -0.40388346 0.13136442 -0.21710135
0000d0 e3 2c 78 be 04 0b a1 be 3d f5 32 be 4e 48 fe bd
       -0.24235873 -0.31453717 -0.17476363 -0.12416135
0000e0 21 71 9f bd be c8 59 be 50 12 e8 3e ca aa 03 3f
       -0.077852495 -0.21267983 0.4532647 0.5143248
0000f0 72 54 b4 3e da 21 6a 3d f8 86 36 3e 9f 10 85 be
       0.35220677 0.05716119 0.17824924 -0.25989243

bn2.running_mean f4 [64]
000000 48 da 82 3f 30 fd 2f 40 15 d2 88 3f 77 25 88 3f
       1.0222864 2.7498283 1.0689112 1.0636433
000010 bf 09 cf 3f 43 c3 82 3f dc 50 25 3f d4 f1 1e 40
       1.6174849 1.0215839 0.64576507 2.48351
000020 b5 65 06 3f b1 c2 8f bd 3f 43 94 bc 52 10 ec 3e
       0.5249894 -0.07019556 -0.018098472 0.461062
000030 1f c7 15 3e 84 43 1f be d0 04 ba 3f 73 23 02 3f
       0.1462674 -0.15553099 1.4532719 0.5083534
000040 39 5c 5d 3f ee 3c 9b 3e 0b f2 ed 3e c6 4a 2d be
       0.86468846 0.30319923 0.46473727 -0.16923055
000050 56 55 85 3e bd 81 4e 3f 81 eb af 3f 50 c9 41 be
       0.2604167 0.80666715 1.3743745 -0.18924451
000060 07 ce d1 3f e7 c6 e2 3f 75 af 70 3f 57 c3 ba 3f
       1.6391 1.771695 0.94017726 1.4590863
000070 7d ca a2 3f 43 29 7b be 4a 2a 10 3d 1b f7 4c 3f
       1.2718045 -0.24527459 0.03519658 0.80064553
000080 50 43 b8 3f b0 09 82 3f 0c f7 7c 3f 40 3b 0b 3f
       1.4395542 1.0159206 0.98814464 0.54387283
000090 97 64 b2 3f a2 db 12 3f e9 05 11 3e ea e2 c6 3f
       1.3936948 0.57366383 0.14162411 1.5537999
0000a0 93 b4 af 3f c7 b7 83 3f 43 3b 97 3f f1 6c 64 be
       1.3726982 1.0290459 1.181496 -0.22307183
0000b0 c3 17 44 3f d0 0b 84 3f e4 f7 11 3f c5 db a0 3f
       0.7659876 1.0316105 0.57018876 1.2567068
0000c0 9c 19 79 3f c6 85 e4 3f 55 9e b5 3e 99 b4 d5 3f
       0.973047 1.7853324 0.3547236 1.6695739
0000d0 59 e4 9b 3f 7a 61 99 bd a5 21 d8 3f e8 8a a2 be
       1.2179061 -0.07489295 1.6885267 -0.31746602
0000e0 92 95 05 3e 2f cc af 3d 0e 12 71 3f 32 e5 0c 3f
       0.13045338 0.08583867 0.94168174 0.55037224
0000f0 b3 75 5b 40 69 4e 7a 3e 14 20 0b be 8d d4 6c 3c
       3.4290588 0.24443974 -0.13586456 0.014454973

bn2.running_var f4 [64]
000000 1c 92 98 40 fa a2 e4 41 03 21 df 40 39 c7 04 41
       4.7678356 28.579578 6.9727798 8.298638
000010 72 35 a2 41 13 0f e8 40 79 da ea 40 e3 0f f4 41
       20.276096 7.25184 7.339169 30.507757
000020 24 19 65 40 54 09 dd 3f a7 65 08 40 aa 47 45 40
       3.5796595 1.7268472 2.1312044 3.082499
000030 0e b5 2e 40 b8 60 57 3f df 2e 2e 41 1d 02 a4 40
       2.7298007 0.84131956 10.886443 5.125258
000040 44 ab aa 40 41 56 3e 40 1c f9 bb 40 1e d8 8f 3f
       5.3334064 2.9740145 5.874159 1.1237829
000050 c3 f5 1a 40 96 3f 0e 41 c2 25 29 41 39 06 94 3f
       2.42125 8.890524 10.571718 1.1564399
000060 a2 66 41 41 22 7a 8e 41 f7 e1 50 41 67 65 23 41
       12.087557 17.809635 13.055167 10.212256
000070 47 f4 56 41 f2 3e 31 3f a8 a5 9b 3f 7f ac a6 40
       13.434638 0.6923667 1.2159929 5.2085567
000080 82 a2 37 41 e4 ed 3a 41 24 4d d4 40 ba 58 7f 40
       11.477175 11.683079 6.6344166 3.9897904
000090 ab d9 59 41 4b 52 a3 40 d2 0c 7a 40 9c 4b 58 41
       13.615642 5.1037955 3.9070325 13.518459
0000a0 66 c0 0c 41 7a b3 5d 41 51 3f 09 41 b9 6a 1c 3f
       8.796972 13.8563175 8.577958 0.61100346
0000b0 3e 3c 92 40 50 c7 41 41 b3 8c 88 40 0b 73 f4 40
       4.569854 12.11116 4.267175 7.6390433
0000c0 b3 0c cd 40 fb 92 73 41 1c 3a 8a 40 21 db 80 41
       6.4078 15.223384 4.3195934 16.106997
0000d0 e7 03 18 41 52 27 9a 3f e6 be 57 41 63 3f a1 3f
       9.500953 1.204325 13.484106 1.2597469
0000e0 bb a6 d7 3f 8f dc 1e 40 4c f4 12 41 cf fd 52 40
       1.6847757 2.4822118 9.184643 3.2967412
0000f0 78 b0 26 42 2f dc f8 3f 7b 99 9e 3f c3 0d c9 3f
       41.672333 1.9442195 1.2390589 1.5707325

conv3.weight f4 [64, 64, 3, 3]
000000 f4 d2 07 3d 36 1f 6a 3d 71 c5 02 3d cb 8a 36 bd
       0.033160165 0.05715867 0.031926576 -0.044565957
000010 1e de 61 ba 4d 07 82 bd c9 7b a3 3c 14 55 28 3d
       -0.0008616167 -0.06349049 0.019956486 0.04109676
000020 c9 cb a2 3c fb a3 c1 3c ca 22 e9 3c 21 62 2a 3d
       0.019872563 0.023637762 0.028458972 0.04159749
000030 08 70 a3 3d 43 54 ca 3d 55 62 af 3d a3 34 68 3c
       0.07980353 0.09879353 0.08563677 0.014172706
000040 35 c6 7d 3d d1 98 24 3d 2e 3d e4 3c d2 9f 39 3d
       0.061956603 0.0401848 0.027861204 0.045318432
000050 d6 98 22 bd 24 70 51 bc c8 cf a5 3c 3f 28 e0 3c
       -0.039696537 -0.012783084 0.02024068 0.02736294
000060 9e 22 8c 3a f0 7e 1b bd 65 31 dd bc 4c 1b a6 3d
       0.0010691469 -0.037962854 -0.027001092 0.08110675
000070 2c 0b c9 bb 7b c8 b0 3c 03 91 3c 3d 67 4a 43 3d
       -0.006135365 0.021579972 0.04603673 0.047678377
000080 83 91 27 3d 41 b1 86 3d d2 43 25 bd 4a 2f e0 3c
       0.040910255 0.06576777 -0.04034788 0.0273663
000090 6b 96 36 bd be 21 08 bd f8 fb 34 bd e5 7c 25 3d
       -0.044577044 -0.033235304 -0.04418561 0.04040231
0000a0 ce b5 c4 3c 00 9f 12 3d 65 e5 99 bb 8c fe 73 bd
       0.024012472 0.035796165 -0.0046965354 -0.059568927
0000b0 27 b4 39 bc 7f 35 a5 3c 44 9f 89 3c 0d 95 0a bc
       -0.011334456 0.02016711 0.016799577 -0.008458388
0000c0 4b 7d eb 3c 9f b8 11 3d ad 99 01 3c 8c 98 63 bd
       0.028746268 0.03557646 0.007910174 -0.055565402
0000d0 c0 f3 74 bd d7 69 34 bb f7 43 fb bb c0 de 2c bc
       -0.05980277 -0.0027528906 -0.007668014 -0.010551155
0000e0 5a 25 22 3d 12 fb 4d bb a6 4a 18 3d 7d 5a 0e 3b
       0.039586402 -0.0031430167 0.037180565 0.0021721416
0000f0 5a a8 67 bd 8a 4f 11 bd b3 6a be 3a 2f ea 47 bc
       -0.056557037 -0.035476245 0.0014527648 -0.01220183
000100 1d 48 d6 3c fd 6e 2a bd a3 d3 78 bc b4 bc 4d 3d
       0.026157433 -0.041609753 -0.015187177 0.05022879
000110 54 ce a2 3b 48 2b 2d bd 78 de 28 ba e7 b5 42 bd
       0.004968444 -0.042277604 -0.0006441842 -0.047536757
000120 14 da 6c bc 85 53 ae bc 69 b0 90 3b 2e a4 f6 3d
       -0.014456291 -0.02128006 0.004415561 0.120430335
000130 da da 08 3d fa 4f 1a 3d a3 6a 13 bd 27 b0 45 3c
       0.033411838 0.037673928 -0.03599037 0.012065924
000140 da dc 84 bd d7 11 b5 3b 4c e1 dd bc 4a 56 89 3d
       -0.064874366 0.0055258083 -0.027084969 0.067059115
000150 b1 9c ff 3d 86 bf d8 3d d2 d6 11 3e 8e c7 7f bc
       0.124810584 0.10583405 0.14242104 -0.015611542
000160 f8 76 91 bc 93 81 0a bd 4f 2d 40 bd 3b c6 c9 bc
       -0.017756924 -0.033814978 -0.04691821 -0.024630656
000170 0d 32 e0 bc 66 74 7b bc 52 89 03 bd 5e e7 ff b9
       -0.027367616 -0.015347576 -0.03211338 -0.00048809772
000180 8d af 5f 3d 7f 58 a9 bc 66 8f 4a bc fe fa c3 3c
       0.054610778 -0.020672081 -0.01236329 0.023923393
000190 31 13 f3 3c 0a aa 06 3c d3 3e b7 3d e7 fc 5a 3d
       0.029672237 0.008219251 0.0894753 0.053463843
0001a0 c5 99 8d 3d 29 83 2b 3c e2 e8 1e bd d7 b9 99 bc
       0.06914095 0.010468283 -0.038796313 -0.018765373
0001b0 47 ba a3 bc ec 77 d1 3c 19 72 07 3b 1d ca 3e 3d
       -0.019986285 0.025569879 0.0020667373 0.04657947
0001c0 86 b2 59 3d 9f d2 66 3d e4 9a e5 3d bc ea 9f 3d
       0.05314877 0.056353208 0.11211184 0.07808444
0001d0 f7 72 9e 3d ce a5 ad 3d 16 ab 4a 3c d2 e4 76 3c
       0.077367716 0.0847889 0.012369892 0.015069203
0001e0 dd 15 a0 3d 23 47 16 3d 29 40 13 3d bb b8 e6 bc
       0.0781667 0.036688935 0.03594986 -0.028164258
0001f0 70 30 35 bd f7 bf 1a bd 2e 43 7d bd 1c 12 45 bd
       -0.044235647 -0.03778073 -0.061831646 -0.048112974
000200 45 8e c1 bd 3e d8 5e bd 2b b6 be bd 28 c5 92 bd
       -0.09450964 -0.054405443 -0.093120895 -0.07166511
000210 25 8c cf bb 48 7c 9d bd 07 67 06 bd 3c 5e c6 bb
       -0.006333845 -0.076897204 -0.0328131 -0.006053714
000220 5b 2c 6e bd 59 b4 ea bc 41 30 4e bd 91 26 dc 3b
       -0.05814777 -0.02865045 -0.050338987 0.0067184647
000230 54 cd 60 3c 5e 1b 32 bd d9 ac d1 bc 2b 84 7c 3c
       0.013720829 -0.04348313 -0.025595115 0.015412371
000240 14 22 7e bd 0c d2 13 3d b3 1a 71 bd c2 b3 42 3d
       -0.06204422 0.03608899 -0.058863353 0.04753471
000250 ce 5b b2 3d 09 18 6f 3c d7 4b 91 ba da c5 d5 3c
       0.087089166 0.014593133 -0.0011085224 0.02609532
000260 e3 aa 99 bc 43 02 b5 3c 6a 5d 55 3c 79 18 ac 3d
       -0.018758243 0.022095805 0.01302276 0.08403105
000270 61 50 1f 3e 5e 19 7e 3d b5 77 d5 3d 55 94 4f bb
       0.15558006 0.06203591 0.10423223 -0.0031674106
000280 0b 21 3b 3d f6 c5 e9 3c f1 b1 ef bc 81 07 24 bd
       0.04568581 0.028536778 -0.029259654 -0.04004622
000290 36 da 7c bc 60 48 18 3d 3f 89 ee bc 31 64 94 3d
       -0.015432885 0.037178397 -0.029118178 0.072456725
0002a0 8d 98 9c 3d 43 86 64 3d 1c 69 ae 3d 01 1b 6d bd
       0.07646284 0.055792104 0.08516142 -0.05788708
0002b0 94 ad 1e bd f9 c7 25 3b c0 c4 01 3c a4 1a 8e 3d
       -0.038739756 0.0025296195 0.007920444 0.06938675
0002c0 0f 84 9b 3d 61 aa 85 bd cd 88 75 bd 2f 30 d5 bc
       0.075935476 -0.06526638 -0.059944917 -0.026023952
0002d0 53 e4 50 bd d0 8e 24 bd 1d ce 15 bd 8d 25 09 3c
       -0.050998997 -0.04017526 -0.036573518 0.008370769
0002e0 dd b4 a6 3b 98 e5 82 3b 64 b1 e7 3c 91 13 df ba
       0.0050874786 0.003994655 0.028282829 -0.0017019381
0002f0 0b e9 72 3d 1f 44 00 3d 88 62 bc 3c c5 e3 c0 3c
       0.05930428 0.031314965 0.022996202 0.023546109
000300 c7 41 79 3d 12 ab 82 3d b8 c9 1e 3d bf 7a 06 bd
       0.060853746 0.06380285 0.038766593 -0.032831904
000310 80 dd 9d bc d8 bb bb bc 51 33 8d 3d fa 30 b5 3d
       -0.019270658 -0.02291672 0.068945535 0.08847232
000320 53 b4 8d 3d f7 82 1e 3d fc ff eb 3d b1 0c 9e 3d
       0.0691916 0.038699117 0.115234345 0.077172644
000330 ec ba 5a 3d d1 21 73 3d 9c 7c dd bb 28 23 75 bd
       0.05340092 0.05935842 -0.0067592394 -0.05984798
000340 4b b2 31 bd d8 d8 95 bc ae ad 93 3d 27 1b 4e 3d
       -0.043382924 -0.018291876 0.07210861 0.050318863
000350 03 d2 9f 3d c9 7f 51 3c 95 7a 99 bd 73 7b 1a bd
       0.078037284 0.012786814 -0.07494084 -0.037715387
000360 a7 3e 4e bd 3d b6 ac bd 76 aa 79 bd d1 53 bc bd
       -0.05035272 -0.08433197 -0.06095358 -0.09195674
000370 5c cc 3a bd a7 1a c5 bd 4c ff ae bd bd f9 94 bd
       -0.04560505 -0.09624224 -0.08544788 -0.07274196
000380 eb e1 58 bd 91 ea 09 3d aa e7 71 bb b6 8f 3c bc
       -0.052949827 0.033670966 -0.0036911764 -0.011508873
000390 f4 97 d2 3d af 42 ff 3c 81 72 af 3d 3a 42 37 3d
       0.10282889 0.031159727 0.08566762 0.044740893
0003a0 c2 cb 19 bc 44 f8 3e 3c d9 11 17 bd 00 c4 92 bd
       -0.009386959 0.011655871 -0.036882255 -0.0716629
0003b0 95 f4 4a bd 77 29 95 3d 0c 0c 91 3d a0 0a 2d 3d
       -0.049549658 0.072832994 0.07082376 0.04224646
0003c0 7d 1c a2 bc 8d 12 49 bd 89 a1 fc bc ca 7f 0b 3d
       -0.019788975 -0.049089957 -0.030838745 0.034057416
0003d0 ca f3 9a 3c 13 6b e4 3c 04 86 5d 3d 26 bd f8 3c
       0.018915076 0.027883088 0.054082885 0.03036363
0003e0 a7 fa e7 3c 64 e6 d3 3a f2 b5 40 bd fa c3 c3 bc
       0.028317763 0.0016166684 -0.047048517 -0.02389716
0003f0 3a 54 85 3b 30 16 a5 3c 4d 24 30 3d 89 57 fc 3d
       0.0040688785 0.020152181 0.04300337 0.123213835

conv3.bias f4 [64]
000000 c3 bc d5 be 91 2a 00 be 0c bb b1 be 35 f7 92 bd
       -0.41745576 -0.12516238 -0.34713018 -0.07176057
000010 6e d1 20 be 06 c7 2a be fe d0 e8 3c 91 57 11 be
       -0.15704891 -0.16677484 0.028419968 -0.1419356
000020 66 fd 4a 3b 80 07 ec bd 6f 57 fe bd b9 8f 2f be
       0.003097379 -0.11524868 -0.124190204 -0.1714467
000030 62 e0 84 bc 59 ee 10 be 6e 24 e0 bd 40 03 a9 be
       -0.016220275 -0.14153422 -0.109444484 -0.33010292
000040 05 d1 15 be 27 3e 3f 3b 66 ac 91 bd cd 8c a2 be
       -0.14630516 0.0029181333 -0.071129605 -0.31748047
000050 70 c3 19 be 39 04 8f bd 26 5d c6 bd c4 22 37 be
       -0.1501596 -0.06983227 -0.096857354 -0.17884356
000060 e0 ca 94 be 98 14 33 be c8 b9 db bd ba ad 0d be
       -0.2906103 -0.17488325 -0.10728794 -0.13835803
000070 dc df 2d be fe ab b4 bc 06 db 52 be 21 12 e4 bd
       -0.16979927 -0.022054669 -0.20591363 -0.1113627
000080 e7 82 4d be e3 96 18 be 4b 6a 51 bd b2 8b 74 bc
       -0.20069467 -0.14901309 -0.05112676 -0.014925884
000090 63 ff 06 be a5 ce 6f be 17 57 ce bd 0e bc 3d bd
       -0.1318336 -0.23418672 -0.10075205 -0.04632192
0000a0 dd 06 5e bd 61 d6 0c be 95 95 0f be a6 55 0f be
       -0.054205764 -0.13753654 -0.14021905 -0.13997516
0000b0 dc 61 d4 bd d5 e8 0a be 65 6c 95 bd 1e 77 69 3c
       -0.10370228 -0.13565381 -0.07296065 0.014249591
0000c0 b2 06 34 be fb 14 e7 bd 5d 3d 4a 3d d6 21 96 bd
       -0.17580679 -0.112832986 0.049374927 -0.073306724
0000d0 2e 51 36 bd 6e 83 bd 3a 58 2b 2b be 44 fa b3 bd
       -0.044511013 0.0014458725 -0.16715753 -0.08787969
0000e0 74 d8 a7 bd 04 b7 31 bd 34 b5 85 be b8 ec 6d 3c
       -0.08195582 -0.043387428 -0.2611481 0.01452177
0000f0 be 93 98 be ba a4 0f be 2f e8 96 bc 1e b7 53 be
       -0.29800218 -0.14027682 -0.01842126 -0.20675322

bn3.weight f4 [64]
000000 c3 2c 8a 3f 09 e8 61 3f 05 83 91 3f 6c 41 59 3f
       1.079491 0.8824468 1.1368109 0.8486545
000010 6f 39 82 3f fc a8 65 3f 6f fa 63 3f 66 bb 67 3f
       1.0173777 0.89710975 0.89054006 0.9052032
000020 0d 03 61 3f a7 e0 70 3f da 3f 7c 3f 49 53 82 3f
       0.8789528 0.9409279 0.9853493 1.0181667
000030 61 52 5e 3f d4 9c 6c 3f 50 29 6b 3f 3e 5e 8d 3f
       0.8684445 0.924268 0.9185991 1.1044385
000040 10 05 81 3f fe cd 51 3f 14 fb 4e 3f 6e 1b 90 3f
       1.007967 0.81954944 0.80851865 1.1258371
000050 f9 00 78 3f e4 19 7b 3f 59 89 72 3f a7 d6 84 3f
       0.96876484 0.9808638 0.94740826 1.0378007
000060 c0 bf 89 3f af a6 75 3f 95 83 65 3f 85 ba 72 3f
       1.0761642 0.95957464 0.89653903 0.94815856
000070 e4 fc 71 3f ea 33 7c 3f 6e 0f 6d 3f 89 b2 59 3f
       0.94526505 0.98516715 0.9260167 0.8503805
000080 43 d1 6e 3f 09 c9 81 3f 66 21 74 3f c6 64 6f 3f
       0.9328806 1.0139476 0.9536346 0.93513143
000090 8d 38 65 3f 16 ad 89 3f 61 d9 83 3f ab 70 80 3f
       0.89539415 1.0755947 1.0300714 1.0034384
0000a0 26 50 72 3f c7 9c 6d 3f 7d bc 7f 3f b2 48 73 3f
       0.94653547 0.9281735 0.99896985 0.950328
0000b0 61 1b 83 3f af a5 6d 3f e1 d6 52 3f b3 c7 72 3f
       1.024273 0.9283094 0.8235913 0.94835967
0000c0 a9 04 79 3f fb 41 68 3f 3b 75 5a 3f fb 51 69 3f
       0.97272736 0.9072568 0.8533513 0.9114072
0000d0 7b 27 51 3f 19 c5 55 3f ab 0c 7f 3f f6 81 73 3f
       0.8170087 0.8350387 0.99628705 0.9512018
0000e0 b0 60 78 3f ab eb 66 3f cf 2d 85 3f 29 9b 7a 3f
       0.97022533 0.9020335 1.0404605 0.97893006
0000f0 ab b2 89 3f bf 4c 7a 3f 5c 2d 70 3f a5 9e 82 3f
       1.075765 0.97773355 0.9381921 1.0204664

bn3.bias f4 [64]
000000 40 a3 eb be 69 ca 08 3f 61 6b 2e be 95 c2 ed 3e
       -0.46022987 0.53433853 -0.1703315 0.46437517
000010 4d f1 3a 3e 6f 8d 1e bf d6 d3 ed 3e 07 d0 f7 3e
       0.18256111 -0.6193456 0.4645068 0.484009
000020 82 87 5c be 55 73 ab 3e 0f ea 49 3c 12 b5 88 be
       -0.21536067 0.3348643 0.01232387 -0.26700646
000030 84 4c 1e 3f 9f ba c8 be e2 56 d7 3e e2 72 ec be
       0.61835504 -0.3920488 0.42058474 -0.461814
000040 6c ff 67 be 12 ba ba 3e a4 91 79 bb a3 6c 09 bf
       -0.2265603 0.36470085 -0.0038081193 -0.5368139
000050 b3 ee c3 be 37 1d 99 be 91 ef 2c bd d4 62 d8 be
       -0.3826805 -0.29905102 -0.042220656 -0.422629
000060 59 20 bb be b3 b5 84 3d f8 1a b2 be 36 76 b4 3d
       -0.36548117 0.06479969 -0.347862 0.088116094
000070 1f 91 bd 3d cc d3 b5 3e eb a8 f5 3e 1b a2 e4 3d
       0.09256195 0.3551315 0.47980437 0.11163732
000080 51 ff 89 bd d4 62 99 3d 8e dc 09 3f 6c 84 be be
       -0.06738151 0.07489553 0.53852165 -0.37210405
000090 49 cb 21 be 7a ea cc be 7b ce af 3e 8d e6 b6 be
       -0.15800203 -0.4002264 0.3433722 -0.3572277
0000a0 35 1b d1 be eb 76 6d 3d ca 4f 9d 3e e1 19 01 bf
       -0.4084107 0.057974737 0.30724937 -0.50430113
0000b0 a3 0b c2 bc b2 cd 85 3e 3c 2e 84 be 2f f7 fa be
       -0.02368719 0.26133496 -0.25816524 -0.4901671
0000c0 bd 73 d8 be 2f 80 9d be 2b a7 9a be 20 cb 1f 3d
       -0.422758 -0.3076186 -0.30205664 0.039012074
0000d0 c8 c1 eb be 07 20 a5 3e f5 c5 f3 be 0a 71 fe be
       -0.4604628 0.32250997 -0.47611967 -0.49695617
0000e0 8e 79 c4 3e 4a c9 71 be 05 69 ab be 82 cd 05 bf
       0.3837399 -0.23611942 -0.3347856 -0.52266705
0000f0 a9 22 22 be 0e a8 35 3c cd 4e 7e bd e2 8c d0 3e
       -0.15833534 0.011087431 -0.06208687 0.40732485

bn3.running_mean f4 [64]
000000 81 9d 43 bf 49 29 78 3f 21 0e 2a bf a3 01 b9 3f
       -0.76412207 0.96937996 -0.6642781 1.4453624
000010 d0 91 09 be f7 51 b9 be 2a 67 bd 3f 05 e9 ce 3e
       -0.1343453 -0.36195347 1.4797108 0.40412155
000020 ba c7 02 40 6f 73 09 3e 11 de 38 be e6 c8 f4 be
       2.0434403 0.1342294 -0.18053462 -0.47809523
000030 3e a8 29 40 05 e3 68 be 67 c4 42 3c dd 99 ff be
       2.6508937 -0.22742851 0.011887646 -0.49922076
000040 22 18 b1 3f d6 bc dc 3f 84 65 9e 3f 80 28 b7 be
       1.383549 1.7245128 1.237473 -0.35773087
000050 d9 f5 9e 3f 17 14 c3 3d 76 94 74 3f b6 b7 98 be
       1.2418777 0.09525316 0.95539033 -0.2982766
000060 d3 21 bc be 40 1d f1 3f b4 18 09 3f 02 9f 9f 3f
       -0.36744556 1.8837051 0.5355332 1.24704
000070 a3 0f cf 3f 20 52 e8 3e b4 d0 81 3f 1c 3e 87 3f
       1.6176647 0.45375156 1.0141816 1.0565829
000080 c7 f7 c5 3e 86 d6 5d be 4c f1 7f 3f 11 db 21 40
       0.38665602 -0.21663865 0.99977565 2.5289958
000090 bc ec 15 40 2a e0 98 be 50 d8 39 be 8c 63 30 3f
       2.3425741 -0.29858524 -0.18148923 0.68901896
0000a0 68 77 0d 40 42 b3 03 3f f0 0c 28 40 86 72 ff 3f
       2.210413 0.514454 2.6257896 1.9956825
0000b0 52 6b d4 3d 18 f5 88 be 0e 06 c1 3e bb 29 2f 40
       0.10372032 -0.26749492 0.37699932 2.736922
0000c0 0f 7c d1 be 5a 24 24 40 4d da 32 40 3d 8b 02 3f
       -0.40914962 2.5647187 2.794574 0.5099371
0000d0 5b ac 36 3f 0e c2 f1 3f 61 6f 29 be 31 77 96 be
       0.71356744 1.8887346 -0.16546394 -0.2938781
0000e0 f4 c2 34 40 75 00 b2 3e 06 41 f6 be dc 7f 07 40
       2.824399 0.34765974 -0.48096484 2.117179
0000f0 16 96 e0 be b7 9a 71 be 64 6f 4c 3f 30 ea aa 3f
       -0.43864506 -0.23594175 0.7985747 1.3352718

bn3.running_var f4 [64]
000000 bc 66 19 3f bd 46 fe 40 cf 59 ed 3e 06 5b 45 41
       0.59922385 7.946135 0.4635758 12.3347225
000010 70 6f 43 40 98 a0 65 3f 31 a7 0d 41 f7 be 6f 40
       3.0536766 0.8969817 8.853318 3.7460306
000020 e9 3a c1 41 7d 61 66 40 80 96 88 3f d9 dd 12 40
       24.153765 3.5997002 1.0670929 2.2947905
000030 e9 17 09 42 4d d3 2a 40 ac 63 4e 40 0a 1d 80 3f
       34.27335 2.6691468 3.2248335 1.0008862
000040 a0 3b 7c 41 51 84 27 41 8f a0 51 41 1a 90 eb 3f
       15.764557 10.469804 13.101699 1.8403351
000050 96 87 29 41 c9 2b 4a 40 cf f8 f7 40 be da 62 3f
       10.595602 3.1589224 7.749122 0.88615024
000060 9a 59 fa 3f e4 c9 c4 41 f5 8f d9 40 92 98 77 41
       1.9558594 24.59858 6.798823 15.474749
000070 26 7a a3 41 1e e7 8e 40 1e fb 2f 41 8e 94 3f 41
       20.434643 4.4657125 10.998808 11.973768
000080 0b f2 84 40 a7 4e 0b 40 53 bf d5 40 98 18 0b 42
       4.1545463 2.1766756 6.679605 34.774017
000090 ac bf f4 41 b4 33 16 40 f9 ad 1a 40 82 88 3d 40
       30.59359 2.3469057 2.4168684 2.9614568
0000a0 39 4d 02 42 52 fe e7 40 5f 73 29 42 56 51 03 42
       32.575413 7.249795 42.362667 32.82943
0000b0 9a 57 01 40 ae 26 c7 3f c9 fb b3 40 98 cf be 41
       2.0209718 1.5558679 5.6244855 23.851364
0000c0 48 01 50 3f 58 73 05 42 57 84 03 42 3b 7f 90 40
       0.81251955 33.36264 32.87924 4.515531
0000d0 6d 3c e3 40 c1 bb 35 41 57 f7 4b 40 68 0d be 3f
       7.101126 11.358338 3.1869714 1.4847841
0000e0 8d f2 0f 42 25 15 31 40 5c e0 8e 3f b0 7b 34 41
       35.986866 2.7669156 1.1162219 11.280197
0000f0 ed 80 46 3f f8 6e 28 40 6a 21 a7 40 bf a6 93 41
       0.77540475 2.631773 5.222829 18.456419
