data/models/transformer_v1.pt (torch, 767306 bytes, 134 tensors)

class_token f4 [1, 16]
0	0x3e6e0baf	0.23246644
1	0x3f4b5ec0	0.7944145
2	0x3ef460ad	0.47730008
3	0x3f3ceaba	0.73795664
4	0x3ec0b58f	0.37638518
5	0x3ec1e608	0.37870812
6	0x3f128551	0.57234675
7	0x3f71b862	0.9442197
8	0x3f150449	0.58209664
9	0x3f11937f	0.56865686
10	0x3ed76d97	0.42075798
11	0x3d9648dc	0.073381156
12	0x3e98f721	0.29876044
13	0x3e55c3e6	0.2087551
14	0x3f0e6ab1	0.5563155
15	0x3f7e68e8	0.99378824

pos_embed f4 [257, 16]
0	0x00000000	0.0
1	0x3f800000	1.0
2	0x00000000	0.0
3	0x3f800000	1.0
4	0x00000000	0.0
5	0x3f800000	1.0
6	0x00000000	0.0
7	0x3f800000	1.0
8	0x00000000	0.0
9	0x3f800000	1.0
10	0x00000000	0.0
11	0x3f800000	1.0
12	0x00000000	0.0
13	0x3f800000	1.0
14	0x00000000	0.0
15	0x3f800000	1.0
16	0x3f576aa4	0.84147096
17	0x3f0a5140	0.5403023
18	0x3e9f393e	0.3109836
19	0x3f734e6a	0.95041525
20	0x3dcc7576	0.099833414
21	0x3f7eb898	0.9950042
22	0x3d01815c	0.031617507
23	0x3f7fdf3c	0.99950004
24	0x3c23d657	0.009999833
25	0x3f7ffcb9	0.99995
26	0x3b4f3e20	0.0031622723
27	0x3f7fffac	0.999995
28	0x3a83126d	0.0009999998
29	0x3f7ffff8	0.9999995
30	0x39a5cb5f	0.00031622776
31	0x3f7fffff	0.99999994
32	0x3f68c7b7	0.9092974
33	0xbed51133	-0.41614684
34	0x3f17541b	0.5911271
35	0x3f4e7bec	0.8065784
36	0x3e4b6ff9	0.19866933
37	0x3f7ae5a5	0.9800666
38	0x3d8170c8	0.063203394
39	0x3f7f7cf9	0.9980007
40	0x3ca3d43e	0.019998666
41	0x3f7ff2e5	0.9998
42	0x3bcf3ddd	0.0063245133
43	0x3f7ffeb0	0.99998
44	0x3b031269	0.0019999987
45	0x3f7fffde	0.999998
46	0x3a25cb5f	0.0006324555
47	0x3f7ffffd	0.9999998
48	0x3e1081c3	0.14112
49	0xbf7d7026	-0.9899925
50	0x3f5009c2	0.8126489
51	0x3f152f57	0.5827536
52	0x3e974e6d	0.29552022
53	0x3f7490ef	0.9553365
54	0x3dc1ffc1	0.09472609
55	0x3f7ed94f	0.99550337
56	0x3cf5b920	0.029995501
57	0x3f7fe283	0.99955004
58	0x3c1b6e11	0.009486691
59	0x3f7ffd0d	0.999955
60	0x3b449b93	0.0029999956
61	0x3f7fffb5	0.9999955
62	0x3a78b10d	0.0009486832
63	0x3f7ffff8	0.9999995
64	0xbf41bdcf	-0.7568025
65	0xbf275530	-0.6536436
66	0x3f741dde	0.95358074
67	0x3e9a2eb1	0.30113748
68	0x3ec761d7	0.38941833
69	0x3f6bcaa7	0.921061
70	0x3e012e88	0.12615407
71	0x3f7df469	0.99201065
72	0x3d23cbdb	0.039989334
73	0x3f7fcb94	0.9992001
74	0x3c4f3ccd	0.012648773
75	0x3f7ffac2	0.99992
76	0x3b831258	0.0039999895
77	0x3f7fff7a	0.999992
78	0x3aa5cb5c	0.0012649107
79	0x3f7ffff3	0.9999992
80	0xbf757c10	-0.9589243
81	0x3e913c2c	0.2836622
82	0x3f7ffc7f	0.99994653
83	0xbc2972d4	-0.010342319
84	0x3ef57744	0.47942555
85	0x3f60a940	0.87758255
86	0x3e213c1e	0.15745589
87	0x3f7cce81	0.987526
88	0x3d4cb6f5	0.04997917
89	0x3f7fae19	0.99875027
90	0x3c818581	0.01581073
91	0x3f7ff7cf	0.999875
92	0x3ba3d6de	0.0049999794
93	0x3f7fff2e	0.9999875
94	0x3acf3e31	0.0015811381
95	0x3f7fffeb	0.99999875
96	0xbe8f0f8c	-0.2794155
97	0x3f75cdb8	0.96017027
98	0x3f72784d	0.94714814
99	0xbea43f6f	-0.32079646
100	0x3f108c69	0.5646425
101	0x3f534932	0.8253356
102	0x3e41206f	0.18860029
103	0x3f7b67e3	0.98205394
104	0x3d759cd1	0.059964005
105	0x3f7f8a12	0.99820054
106	0x3c9b6c46	0.018972527
107	0x3f7ff434	0.99982
108	0x3bc49b59	0.005999964
109	0x3f7ffed2	0.999982
110	0x3af8b105	0.0018973654
111	0x3f7fffe2	0.9999982
112	0x3f283046	0.6569866
113	0x3f40ffbd	0.75390226
114	0x3f4ce86f	0.80042166
115	0xbf1974bb	-0.5994374
116	0x3f24eb73	0.64421767
117	0x3f43ccb3	0.7648422
118	0x3e60d350	0.2195561
119	0x3f79c0ea	0.9755999
120	0x3d8f3e32	0.06994285
121	0x3f7f5f81	0.997551
122	0x3cb552a6	0.022134136
123	0x3f7feff2	0.999755
124	0x3be55fc7	0.006999943
125	0x3f7ffe65	0.9999755
126	0x3b1111ec	0.0022135926
127	0x3f7fffd7	0.99999756
128	0x3f7d4695	0.98935825
129	0xbe14fdf6	-0.14550003
130	0x3f13067d	0.57431775
131	0xbf5191e6	-0.8186325
132	0x3f37a4a6	0.7173561
133	0x3f325b5f	0.6967067
134	0x3e802652	0.25029236
135	0x3f77da02	0.9681703
136	0x3da3aa51	0.0799147
137	0x3f7f2e66	0.99680173
138	0x3ccf388e	0.025295522
139	0x3f7feb08	0.99968004
140	0x3c031213	0.007999915
141	0x3f7ffde7	0.999968
142	0x3b25cb54	0.0025298195
143	0x3f7fffca	0.9999968
144	0x3ed30132	0.4121185
145	0xbf693fd5	-0.91113025
146	0x3e951fea	0.2912591
147	0xbf74e6a2	-0.9566442
148	0x3f48881d	0.7833269
149	0x3f1f21d5	0.62161
150	0x3e8fc22e	0.28077835
151	0x3f75b3a9	0.95977265
152	0x3db8123f	0.08987855
153	0x3f7ef6c2	0.9959527
154	0x3ce91def	0.028456656
155	0x3f7fe576	0.99959505
156	0x3c13743a	0.008999879
157	0x3f7ffd59	0.9999595
158	0x3b3a84bb	0.0028460461
159	0x3f7fffbc	0.99999595
160	0xbf0b44f8	-0.5440211
161	0xbf56cd64	-0.8390715
162	0xbca97082	-0.02068353
163	0xbf7ff1fb	-0.9997861
164	0x3f576aa4	0.84147096
165	0x3f0a5140	0.5403023
166	0x3e9f393e	0.3109836
167	0x3f734e6a	0.95041525
168	0x3dcc7576	0.099833414
169	0x3f7eb898	0.9950042
170	0x3d01815c	0.031617507
171	0x3f7fdf3c	0.99950004
172	0x3c23d657	0.009999833
173	0x3f7ffcb9	0.99995
174	0x3b4f3e20	0.0031622723
175	0x3f7fffac	0.999995
176	0xbf7fff5c	-0.9999902
177	0x3b910572	0.004425698
178	0xbea94121	-0.33057502
179	0xbf719b8c	-0.9437797
180	0x3f64262a	0.89120734
181	0x3ee83dc0	0.45359612
182	0x3eae878b	0.34087786
183	0x3f70aae4	0.9401076
184	0x3de0d372	0.1097783
185	0x3f7e73e8	0.9939561
186	0x3d0e736b	0.03477804
187	0x3f7fd85b	0.9993951
188	0x3c34386a	0.010999778
189	0x3f7ffc09	0.9999395
190	0x3b63f785	0.0034784984
191	0x3f7fff9a	0.9999939
192	0xbf095cd8	-0.53657293
193	0x3f5806d0	0.84385395
194	0xbf1b9126	-0.60768354
195	0xbf4b4f55	-0.79417926
196	0x3f6e9a1d	0.9320391
197	0x3eb986f5	0.36235777
198	0x3ebda92c	0.3704313
199	0x3f6dc9c3	0.9288599
200	0x3df52bac	0.119712204
201	0x3f7e28b5	0.99280864
202	0x3d1b651d	0.037938226
203	0x3f7fd0d2	0.9992801
204	0x3c449a71	0.011999712
205	0x3f7ffb48	0.999928
206	0x3b78b0e8	0.0037947241
207	0x3f7fff87	0.9999928
208	0x3ed72022	0.42016703
209	0x3f684e6f	0.9074468
210	0xbf53144c	-0.82452846
211	0xbf10d99d	-0.5658205
212	0x3f76abc0	0.9635582
213	0x3e88f59b	0.26749882
214	0x3ecc9a40	0.39961433
215	0x3f6aabc3	0.9166834
216	0x3e04bed0	0.12963414
217	0x3f7dd700	0.9915619
218	0x3d285669	0.041098032
219	0x3f7fc8a1	0.9991551
220	0x3c54fc6b	0.012999634
221	0x3f7ffa76	0.9999155
222	0x3b86b525	0.0041109496
223	0x3f7fff72	0.99999154
224	0x3f7d9872	0.9906074
225	0x3e0c04d7	0.13673721
226	0xbf75a8b2	-0.95960534
227	0xbe900d0f	-0.28134963
228	0x3f7c466f	0.98544973
229	0x3e2e0bde	0.16996714
230	0x3edb56f5	0.4283978
231	0x3f6751b1	0.90359026
232	0x3e0ee464	0.13954312
233	0x3f7d7ecc	0.990216
234	0x3d354746	0.044257425
235	0x3f7fbfc9	0.99902016
236	0x3c655e56	0.013999542
237	0x3f7ff994	0.999902
238	0x3b9111d4	0.004427174
239	0x3f7fff5c	0.9999902
240	0x3f267944	0.65028787
241	0xbf427ae8	-0.7596879
242	0xbf7fe075	-0.9995187
243	0x3cfe22f7	0.031022532
244	0x3f7f5bd5	0.997495
245	0x3d90deaa	0.0707372
246	0x3ee9db83	0.45675287
247	0x3f63bc68	0.8895936
248	0x3e19064f	0.14943813
249	0x3f7d201a	0.9887711
250	0x3d4237ad	0.047416378
251	0x3f7fb649	0.9988752
252	0x3c75c033	0.014999437
253	0x3f7ff8a1	0.9998875
254	0x3b9b6e83	0.0047433986
255	0x3f7fff43	0.99998873

linear_mapper.weight f4 [16, 256]
0	0xbc41abe9	-0.011820772
1	0xbcba2d57	-0.022726698
2	0xbd8112f8	-0.06302446
3	0x3d24fcf0	0.040280282
4	0x3c7978d9	0.015226566
5	0x3c95ad6d	0.018271172
6	0xbc8999cb	-0.016796967
7	0x3bb028c3	0.005375953
8	0x3d131460	0.035908103
9	0xbcf6c6ae	-0.030124035
10	0x3beb80a1	0.0071869646
11	0xbc90ff8c	-0.01769998
12	0x3c7fce26	0.015613114
13	0xbc7e0b25	-0.015505587
14	0x3d3766a2	0.044775613
15	0xbda5f30f	-0.081030004
16	0x3d214b73	0.039378595
17	0xbcefa8eb	-0.029255351
18	0x3c800be0	0.015630662
19	0xbc1a4be8	-0.0094175115
20	0xbd1a9d2b	-0.037747543
21	0x3d5dc0fa	0.054139115
22	0x3d0909bb	0.033456545
23	0x3d6ba165	0.057526965
24	0xbc8fbb28	-0.017545298
25	0x3d295bb9	0.04134724
26	0xbc82dadd	-0.015973503
27	0xbd24e9f4	-0.040262178
28	0xbd0480b0	-0.03234929
29	0x3c08280a	0.008310327
30	0x3b66cb5d	0.0035216429
31	0xbc50c0bf	-0.012741267
32	0x3d1d5f74	0.03842111
33	0x3b8d0beb	0.0043043992
34	0x3d305bb5	0.04305621
35	0x3c3e5e3a	0.011619145
36	0xbd3ddf7a	-0.046355702
37	0xbc969404	-0.018381126
38	0xbc2c312f	-0.010509773
39	0xbd288827	-0.04114547
40	0xbd3ee9bb	-0.04660962
41	0xbcf5a4fa	-0.029985894
42	0xbd3c91ee	-0.046037607
43	0xbd3479f1	-0.044061605
44	0x3ceb2b30	0.028707117
45	0x3b74b863	0.0037341348
46	0x3c6db466	0.014508342
47	0xbbb7738f	-0.0055984925
48	0x3d47a42c	0.04874055
49	0xbc8b9a0a	-0.017041225
50	0xbbbfaa06	-0.005849126
51	0x3c49f679	0.01232683
52	0xbd76a00e	-0.060211234
53	0x3d1b66f7	0.03793999
54	0xbd22cb56	-0.039744698
55	0x3bcfe8aa	0.0063448744
56	0x3d018066	0.03161659
57	0x3c1b73bb	0.0094880415
58	0xbd3da0f5	-0.04629608
59	0xbc98a955	-0.018635431
60	0xbd23401e	-0.03985607
61	0xbd0959f6	-0.03353306
62	0x3d347125	0.044053216
63	0x3d72a466	0.059238814
64	0xbc2ed347	-0.01067049
65	0x3d366a3f	0.044534918
66	0x3d72dcfa	0.05929277
67	0xbb955b50	-0.0045580044
68	0xbcbefb1b	-0.023313096
69	0xbb9e3e55	-0.004829208
70	0xbca82743	-0.020526534
71	0x3bd0af9e	0.0063685915
72	0xbcd8e300	-0.02647543
73	0xbb9bc048	-0.0047531463
74	0x3d828970	0.063738704
75	0x3cb302a9	0.021851854
76	0x3cd48754	0.025943436
77	0x3d4e7740	0.050406694
78	0xbd566139	-0.052338813
79	0x3d0320a2	0.032013543
80	0x3ca23d3b	0.019804588
81	0xbd30a4b2	-0.043125816
82	0xbcb49679	-0.022044407
83	0xbbee82ed	-0.007278791
84	0xbd1f2d43	-0.038861524
85	0x3b5fcc84	0.0034149
86	0x3d1458bb	0.036217432
87	0xbc632a53	-0.013865071
88	0xb822086e	-3.863166e-05
89	0xbcb8edc7	-0.022574319
90	0xbbb2ebcc	-0.005460238
91	0xbcd5c303	-0.026093965
92	0xbd30f42a	-0.043201603
93	0xbd246449	-0.040134702
94	0xbd287e17	-0.041135874
95	0x3bef6f14	0.0073069427
96	0xbc868bff	-0.016424177
97	0x3c5d15b4	0.013493944
98	0xbce22128	-0.0276037
99	0x3d90895e	0.07057451
100	0xbd5c4c4a	-0.053783692
101	0xbbedeb37	-0.007260706
102	0x3d2c53e3	0.042072188
103	0xbd54dedd	-0.05197035
104	0xbd566307	-0.052340534
105	0x3c752d01	0.014964343
106	0x3c0292f8	0.00796961
107	0xbc3fa100	-0.0116961
108	0x3d442bfe	0.047893517
109	0x3cfcfb52	0.030881558
110	0x3c80f511	0.015741857
111	0x3d61d19e	0.055131547
112	0xbc2c1ef2	-0.010505425
113	0xbac944d8	-0.00153556
114	0x3d169c5f	0.03677022
115	0xbcfc1bb8	-0.030774936
116	0x3d878d70	0.06618774
117	0x3cf33d7d	0.029692406
118	0x3d8378e1	0.0641954
119	0xbc3cd70a	-0.011525879
120	0x3bd70797	0.006562184
121	0x3ce67c95	0.028135577
122	0xbd5a7213	-0.053331446
123	0x3c2f8014	0.010711689
124	0xbd08e237	-0.03341886
125	0x3d28420b	0.04107861
126	0xbd6638a6	-0.056206368
127	0x3d152449	0.036411557
128	0x3cc6fac5	0.024289498
129	0xbcc04248	-0.023469105
130	0x3c6416f4	0.013921488
131	0x3d1a032b	0.037600677
132	0xbd458c39	-0.04822943
133	0xbd09c56e	-0.03363555
134	0xbd51835c	-0.051150665
135	0x3c99cab0	0.018773407
136	0xbc3900d0	-0.011291698
137	0x3c019262	0.007908436
138	0x3b5353e1	0.003224604
139	0xbd0f79a9	-0.035028134
140	0x3d0bad98	0.0341011
141	0xbbd9eff6	-0.00665092
142	0x3c677149	0.01412613
143	0x39c53399	0.0003761321
144	0x3cab9ccc	0.02094879
145	0xbaa03b25	-0.0012224658
146	0x3c4ec559	0.012620294
147	0xbd7e95b2	-0.06215448
148	0x3d5c9200	0.053850174
149	0x3bf67eb8	0.0075224303
150	0xbd5ff2eb	-0.054675024
151	0x3d7144c8	0.058903486
152	0xbbf2f85f	-0.007414862
153	0xbbb66652	-0.0055663968
154	0xbd013b55	-0.031550724
155	0xbd1a4f40	-0.037673235
156	0x3b0fffc6	0.0021972521
157	0x3d10344a	0.035206117
158	0x3d82ecad	0.063927986
159	0xbd059ffc	-0.032623276
160	0xbd3aed2c	-0.04563634
161	0xbd138556	-0.03601583
162	0xbc855f70	-0.01628086
163	0x3d5ab71a	0.053397276
164	0xbd7118ad	-0.058861423
165	0x3ccca8b7	0.024982793
166	0x3ca8b796	0.020595353
167	0x3d3f1f78	0.04666087
168	0x3c799ae8	0.015234686
169	0xbd65f203	-0.056139003
170	0x3bc7df06	0.0060995845
171	0x3d06e73b	0.032935362
172	0xbd50523f	-0.050859686
173	0x3d21b916	0.039483152
174	0xbca1e52e	-0.019762602
175	0x3d3b2d29	0.045697365
176	0x3d3efd97	0.04662856
177	0x3d6001c8	0.0546892
178	0x3c0f62fc	0.008751627
179	0xbbed6120	-0.007244244
180	0xbd458653	-0.048223805
181	0xbd3a61bc	-0.045503363
182	0x3bbf52a3	0.0058387085
183	0xbd0eee16	-0.034895025
184	0xbc6729f4	-0.0141091235
185	0x3d396c37	0.045269217
186	0x3ca9b79b	0.020717433
187	0x3d047b63	0.032344233
188	0x3cab473e	0.020907994
189	0x3c96707d	0.018364185
190	0xbd759b87	-0.059962776
191	0xbc53eeea	-0.0129353795
192	0xbc60a9e6	-0.013712382
193	0xbd3cb457	-0.046070423
194	0xbd3e9e94	-0.04653795
195	0xbcf6a1d4	-0.030106463
196	0x3d57fafc	0.05272959
197	0x3d114ba4	0.035472527
198	0xbd5d39b3	-0.054010104
199	0x3d0ee83e	0.034889452
200	0xbd4e0835	-0.050300796
201	0xbd2fa1e6	-0.042879008
202	0xbc2f9d28	-0.010718621
203	0xbd1d0b25	-0.038340706
204	0x3d8520cf	0.06500398
205	0xbcbc5619	-0.022990273
206	0xbcb6dca3	-0.022322005
207	0xbd61c125	-0.055115838
208	0xbd556063	-0.052093875
209	0xba41273e	-0.0007368213
210	0x3bc17d85	0.0059048557
211	0x3d3f7b5b	0.0467485
212	0xbd24f8c2	-0.040276296
213	0xbcff7dab	-0.031187853
214	0x3d870f7e	0.06594752
215	0xbcd54479	-0.026033627
216	0x3b71e21f	0.003690846
217	0xbcd75939	-0.026287662
218	0xbd51f90a	-0.051262893
219	0xbc828af9	-0.015935408
220	0x3d45e724	0.048316136
221	0x3bb75548	0.005594883
222	0x3d8039c7	0.0626102
223	0x3d6e86ac	0.0582339
224	0xbd84bc17	-0.06481188
225	0xbd2fe9b0	-0.04294747
226	0xbd24d0a8	-0.040238053
227	0xbc9d673e	-0.019214269
228	0xbd1825c5	-0.037145395
229	0xbd3dccd5	-0.04633792
230	0xbc99638c	-0.018724225
231	0x3d6b094e	0.05738192
232	0xbc447d5b	-0.011992778
233	0x3ca3ee71	0.020011159
234	0xbaf27237	-0.0018497173
235	0xbcfde17c	-0.030991308
236	0xbd3e2a6f	-0.046427187
237	0x3cc57c4f	0.024107127
238	0x3cf75903	0.030193811
239	0xbd16311f	-0.03666794
240	0x3d070873	0.032967042
241	0x3c880e96	0.016608518
242	0xbd5422e3	-0.051791083
243	0xbd13509e	-0.035965554
244	0x3d4c543d	0.049885023
245	0x3cd5fda0	0.026121914
246	0xbd488929	-0.04895893
247	0xbd2eeb1e	-0.042704694
248	0xbc720f35	-0.014774133
249	0x3d5b7fd5	0.053588707
250	0xbcc54a76	-0.024083357
251	0x3d074c02	0.03303147
252	0xbccdf08b	-0.025139114
253	0x3d97be04	0.074092895
254	0xbd04e879	-0.032448266
255	0x3ce359c1	0.027752759

linear_mapper.bias f4 [16]
0	0xbd88c415	-0.06678025
1	0xbd0ca041	-0.034332518
2	0x3c93fe51	0.018065603
3	0x3c520c96	0.0128203835
4	0xbcca5ee3	-0.024703449
5	0x3d4552d3	0.04817469
6	0xbcdb4fa2	-0.02677137
7	0x3d68a3a1	0.056796674
8	0xbda25968	-0.07927209
9	0x3c9419e6	0.018078756
10	0xbbecfe91	-0.007232495
11	0xbce7cb99	-0.028295325
12	0x3d31adb6	0.043378554
13	0xbc1a3889	-0.009412893
14	0x3d1b188d	0.03786521
15	0xbcdc2d31	-0.026877018

blocks.0.norm1.weight f4 [16]
0	0x3f7bd964	0.98378587
1	0x3f7f16d4	0.9964421
2	0x3f7dc91b	0.9913499
3	0x3f8078d7	1.0036877
4	0x3f802782	1.0012057
5	0x3f807c23	1.0037884
6	0x3f79d491	0.97589976
7	0x3f81e74c	1.0148711
8	0x3f7e3ecb	0.99314564
9	0x3f82ea9f	1.0227851
10	0x3f7fb92e	0.99891937
11	0x3f811100	1.0083313
12	0x3f7e04a0	0.9922581
13	0x3f7ee0e9	0.99561936
14	0x3f7f1486	0.9964069
15	0x3f81e05d	1.0146595

blocks.0.norm1.bias f4 [16]
0	0xbb984c0a	-0.0046477364
1	0xbbd6b132	-0.006551885
2	0x3b3bda2a	0.0028663971
3	0xbc55beed	-0.013046009
4	0x3b466ff4	0.0030279132
5	0x3b13d5fc	0.0022557965
6	0x3c1be9cc	0.009516191
7	0x3af33564	0.001855534
8	0xbb1c4edd	-0.0023850717
9	0x3b2ff4a6	0.0026848703
10	0x3ade85f7	0.001697718
11	0x3bef5ede	0.00730501
12	0xbbccb2f9	-0.006246921
13	0xbb872902	-0.0041247616
14	0xbb913e25	-0.004432457
15	0x3c79003d	0.015197811

blocks.0.norm2.weight f4 [16]
0	0x3f7ee406	0.99566686
1	0x3f81ce49	1.0141078
2	0x3f7f0222	0.9961263
3	0x3f80ed1a	1.0072358
4	0x3f80346c	1.0015998
5	0x3f80334c	1.0015655
6	0x3f7de81b	0.9918229
7	0x3f8239ed	1.0173928
8	0x3f7c5019	0.9855972
9	0x3f809c5b	1.0047716
10	0x3f7ccc4b	0.98749226
11	0x3f7f35a3	0.9969122
12	0x3f7e503a	0.99341166
13	0x3f7f22fa	0.99662745
14	0x3f7cc09d	0.98731405
15	0x3f7e8d4f	0.9943437

blocks.0.norm2.bias f4 [16]
0	0x3a968d78	0.0011486253
1	0x3b76ef31	0.003767919
2	0x3a96be8e	0.0011500882
3	0x3b9b902e	0.004747412
4	0xbbbc6793	-0.0057496517
5	0xbb6cbfa7	-0.0036124976
6	0xbae3c7b7	-0.0017378245
7	0xba2d4107	-0.0006609116
8	0x3bd43538	0.0064760707
9	0x3b2cb1ea	0.0026351162
10	0x3c3b3f45	0.011428659
11	0x3a7b33ff	0.0009582638
12	0x3a9b5b7a	0.0011852824
13	0xbb06b30f	-0.0020553505
14	0x3c80fe71	0.015746327
15	0xbbc8e2bc	-0.0061305445

blocks.0.mlp.0.weight f4 [64, 16]
0	0x3db1504f	0.08657896
1	0xbdec212f	-0.11529767
2	0xbcaa0b7f	-0.020757435
3	0xbd8f6ee3	-0.07003572
4	0xbdbc283d	-0.09187362
5	0xbe4c104f	-0.19928096
6	0x3ce9e654	0.028552212
7	0xbd96423e	-0.073368534
8	0xbe329212	-0.17438534
9	0xbdbbbd03	-0.091669105
10	0xbe058dc1	-0.13042356
11	0xbe3a22b6	-0.18177304
12	0xbe384ab9	-0.17997254
13	0xbcf0ef97	-0.02941112
14	0xbe667d79	-0.22508802
15	0x3df5f4f6	0.12009613
16	0x3e01d053	0.12677126
17	0xbd450b44	-0.048106447
18	0xbe5e2dd3	-0.21697168
19	0x3e793b71	0.24339081
20	0xbdd839fd	-0.105579354
21	0x3e633c5c	0.22190994
22	0xbe545588	-0.20735753
23	0xbd0588ab	-0.03260104
24	0xbdf334c8	-0.118753016
25	0x3e18b462	0.1491256
26	0xbd4a116f	-0.049333032
27	0xbd9851e7	-0.07437497
28	0x3e16476b	0.14675681
29	0x3e009e68	0.12560427
30	0xbd523d99	-0.051328275
31	0xbe680f15	-0.22662003
32	0xbcc28bd4	-0.023748316
33	0xbd3ca2cd	-0.046053696
34	0xbdd38d0f	-0.10329639
35	0xbe724cd3	-0.23662119
36	0x3e14608f	0.14489959
37	0x3dfa5eec	0.12225136
38	0x3e50702f	0.20355295
39	0x3e6ef792	0.23336628
40	0xbe671b35	-0.22568972
41	0xbdc3cfbc	-0.095611066
42	0xbe613bd6	-0.21995482
43	0x3e08ad60	0.13347387
44	0x3db32a39	0.08748288
45	0xbe316004	-0.17321783
46	0xbe438edd	-0.19097467
47	0x3da0566e	0.07828985
48	0xbd9cf80e	-0.076645
49	0x3e40b137	0.18817602
50	0x3ded00b1	0.115723975
51	0x3ddfc59d	0.109263636
52	0x3da581f5	0.08081428
53	0x3d88251a	0.066477016
54	0x3db53210	0.08847439
55	0xbe46b6c4	-0.19405657
56	0xbe533b42	-0.20628074
57	0xbe121e0e	-0.14269277
58	0x3de01990	0.10942376
59	0x3e2a29ed	0.16617556
60	0x3cd08f09	0.02545883
61	0x3df5142f	0.1196674
62	0x3dfc0d5b	0.12307235
63	0xbc15405f	-0.009109586
64	0xbe40004b	-0.18750112
65	0x3d06413d	0.03277706
66	0x3e452797	0.19253384
67	0xbd135acf	-0.035975274
68	0xbcf83bba	-0.030301917
69	0x3e7bf541	0.24605276
70	0x3d9c114f	0.07620489
71	0xbc0cbb5f	-0.008589595
72	0xbe2d1a1d	-0.16904493
73	0xbd86b65a	-0.065777496
74	0x3c9577a8	0.018245533
75	0xbe4537b9	-0.19259538
76	0x3e63dc5f	0.22252034
77	0x3c2bfcfc	0.010497328
78	0x3da5aaf0	0.08089244
79	0x3e217b21	0.15769626
80	0xbdf959ba	-0.12175317
81	0xbd42dcae	-0.047573738
82	0xbd65327e	-0.055956356
83	0xbe5795c9	-0.21053232
84	0x3e1a4547	0.1506549
85	0x3e31ece2	0.1737552
86	0xbe6f71c8	-0.23383248
87	0xbce73406	-0.028223049
88	0x3d9b6664	0.07587889
89	0x3df5d88c	0.12004194
90	0x3e2b8bcf	0.16752551
91	0x3d613187	0.054978874
92	0x3e312648	0.1729976
93	0xbe654c2e	-0.22392341
94	0xbde289e5	-0.110614575
95	0xbe1e6ccc	-0.1547119
96	0xbdbebc27	-0.09313231
97	0x3e31c484	0.17360121
98	0x3e184500	0.14870071
99	0x3d5bfb8a	0.053706683
100	0xbd836d45	-0.06417326
101	0x3e1a3139	0.1505784
102	0x3df4d7d4	0.119552284
103	0x3d00d340	0.031451464
104	0xbe7b6eb8	-0.24553955
105	0xbe412e65	-0.18865354
106	0x3e54efaf	0.20794557
107	0x3dd5a671	0.10432137
108	0xbe62ca66	-0.22147521
109	0xbe6542a2	-0.223887
110	0x3adbbada	0.001676406
111	0x3d362aaa	0.04447428
112	0xbe5ec529	-0.21754898
113	0xbe6d7640	-0.2318964
114	0x3d00c706	0.031439804
115	0x3e484639	0.19558038
116	0x3e495241	0.19660284
117	0x3e19405a	0.14965954
118	0x3e34df20	0.1766324
119	0xbd278c33	-0.04090519
120	0xbe0bed05	-0.13664635
121	0xbd8ca0ec	-0.06866631
122	0xbe019ae9	-0.1265675
123	0xbe361f3b	-0.17785351
124	0xbe020f45	-0.12701137
125	0xbe740518	-0.23830068
126	0xbdcefd2b	-0.10106882
127	0xbe410851	-0.18850829
128	0x3de5b1f8	0.112155855
129	0x3e5d0563	0.21584086
130	0xbe6878c3	-0.22702317
131	0xbca9565f	-0.020671068
132	0x3d34c120	0.04412949
133	0x3d9a48bc	0.07533404
134	0xbe3e7a57	-0.18601356
135	0x3e291351	0.16511275
136	0xbe79d5c4	-0.24397951
137	0xbadf9316	-0.0017057385
138	0x3e3bd06d	0.18341227
139	0x3e172a7c	0.147623
140	0xbe2e689e	-0.17032096
141	0x3dae39ea	0.0850714
142	0x3d89a276	0.0672044
143	0xbd102f64	-0.035201445
144	0x3e44c90b	0.19217317
145	0xbe1ba7a1	-0.15200664
146	0x3dba9909	0.091112204
147	0x3d970814	0.07374588
148	0x3e35deab	0.17760722
149	0x3e4c1693	0.19930486
150	0x3e69dfc6	0.22839269
151	0xbde5401b	-0.11193868
152	0x3e7bdcae	0.24595901
153	0x3e2b91f3	0.16754894
154	0x3e0adf63	0.13561778
155	0xbd889fd1	-0.066711076
156	0xbe2db16b	-0.16962211
157	0x3d51ee33	0.051252555
158	0x3dbc25e2	0.09186913
159	0x3d81076f	0.06300246
160	0x3e4dc37e	0.20094106
161	0x3dc3a613	0.095531605
162	0x3e496157	0.19666038
163	0x3e23a676	0.15981469
164	0x3e7ad0d7	0.24493729
165	0x3e01d115	0.12677415
166	0xbe635520	-0.22200441
167	0x3d005cbf	0.03133845
168	0x3de660c9	0.11248929
169	0x3e7aeb65	0.24503858
170	0xbbc34711	-0.0059593995
171	0xbc94cb11	-0.018163236
172	0x3e5cf824	0.21579033
173	0x3dcffebc	0.101560086
174	0x3c39b111	0.01133372
175	0x3d46d804	0.048545852
176	0x3e5c6db9	0.21526231
177	0xbc38122a	-0.011234799
178	0xbce834bd	-0.02834546
179	0x39c867a2	0.00038224185
180	0x3c5acdf9	0.013354772
181	0x3e2abc47	0.16673385
182	0xbdb101b8	-0.08642906
183	0xb9e10ccf	-0.00042924887
184	0xbe0b7686	-0.13619432
185	0x3d84b510	0.064798474
186	0xbdfb69dd	-0.12276051
187	0x3de740e1	0.112916715
188	0x3e187457	0.1488813
189	0x3e264f13	0.16241102
190	0x3d849051	0.06472839
191	0xbd0b5c71	-0.034023706
192	0xbe2bf30f	-0.16791938
193	0xbcb7a3f4	-0.022417046
194	0xbe40a29d	-0.18812032
195	0xbe5ef9de	-0.21775004
196	0x3e09db20	0.13462496
197	0xbdabb61e	-0.083843455
198	0xbdc561f5	-0.096378244
199	0xbd4a651b	-0.049412828
200	0xbc18a1ec	-0.009315949
201	0x38fdbb90	0.00012098916
202	0xbd3f14bb	-0.04665063
203	0x3e14934b	0.14509313
204	0xbe02623a	-0.12732783
205	0x3d1df20e	0.03856092
206	0xbe1b60dc	-0.15173668
207	0x3dbdc4e0	0.092660666
208	0xbe360b3c	-0.17777723
209	0x3e15e94f	0.14639781
210	0xbe493bd9	-0.19651736
211	0xbe826bd0	-0.2547288
212	0xbe027297	-0.12739025
213	0xbe57dffa	-0.21081534
214	0x3e094d42	0.13408378
215	0x3dd8e975	0.105914034
216	0x3d98e4a1	0.074654825
217	0x3e1075fe	0.1410751
218	0x3dae0afe	0.0849819
219	0x3e77850e	0.2417185
220	0x3d415c8a	0.047207393
221	0x3e788e7b	0.24273102
222	0x3db176f0	0.08665264
223	0xbdd96546	-0.106150195
224	0x3e2edf97	0.1707748
225	0x3e1ab04c	0.15106314
226	0x3d5dfb5a	0.054194786
227	0x3e32dc72	0.17466906
228	0xbd63f418	-0.055652708
229	0xbdb4dc40	-0.08831072
230	0xbe1dbcf1	-0.15404107
231	0x3e82f43e	0.25576967
232	0x3b002199	0.0019551276
233	0xbe1fa247	-0.15589248
234	0xbdb32aa3	-0.08748367
235	0xbaccc0ee	-0.0015621462
236	0x3e7c073b	0.24612133
237	0xbe17bfab	-0.1481921
238	0x3e4a78ff	0.19772719
239	0x3dad2a59	0.08455343
240	0x3e2c4731	0.16824032
241	0xbe1fe95f	-0.15616368
242	0x3e784068	0.24243319
243	0x3e3ea2db	0.18616812
244	0x3d5dfe07	0.054197337
245	0x3e10cab6	0.14139828
246	0x3e5b87c8	0.21438515
247	0xbd99d215	-0.07510773
248	0xbd71a5be	-0.058995955
249	0x3dc7f9e1	0.097644575
250	0x3ddbda58	0.10735005
251	0xbe69f37d	-0.2284679
252	0xbe792700	-0.24331284
253	0x3d8655f8	0.06559366
254	0x3df19e19	0.11797733
255	0xbdf26e1e	-0.118374094

blocks.0.mlp.0.bias f4 [64]
0	0x3d916ac8	0.07100445
1	0xbdb89bd6	-0.09014098
2	0xbe811529	-0.25211456
3	0xbe4e95d4	-0.20174342
4	0xbd0f3dfd	-0.034971226
5	0x3e0c1170	0.13678527
6	0x3dd60062	0.10449292
7	0xbe16c937	-0.14725195
8	0xbe4a24f2	-0.19740656
9	0xbe1dc07a	-0.15405455
10	0x3e37d0bb	0.17950718
11	0xbdf7cdce	-0.12099801
12	0x3da5eaaa	0.08101399
13	0xbd3a4f32	-0.045485683
14	0xbdbb46d0	-0.09144366
15	0xbe3a2a7e	-0.18180272
16	0xbe160199	-0.14649047
17	0xbcd7a487	-0.02632357
18	0x3d8564d8	0.06513375
19	0x3d3f98db	0.046776634
20	0xbe0463cc	-0.12928694
21	0xbe31b7c3	-0.17355256
22	0xbc8d1f4d	-0.01722684
23	0xbe5463ba	-0.20741168
24	0xbd689cfa	-0.05679033
25	0x3d30be0d	0.043149997
26	0xbe039fad	-0.1285388
27	0x3d933f9d	0.07189868
28	0x3d598af4	0.05311103
29	0xbbcfe224	-0.0063440967
30	0xbdae735b	-0.08518096
31	0xbd27267a	-0.04080818
32	0xbd4daaf2	-0.050211854
33	0x3d8534ff	0.06504249
34	0xbe504d83	-0.20342068
35	0xbe705c68	-0.2347275
36	0xbdaaca0c	-0.08339319
37	0xbe4cc203	-0.19995885
38	0xbd67aac9	-0.056559358
39	0xbe3454b1	-0.17610432
40	0x3e3ce458	0.18446481
41	0xbe27f98f	-0.16403793
42	0x3ccc9221	0.024972023
43	0x3e311c87	0.17296039
44	0xbe67b0e4	-0.22626072
45	0x3e5a342e	0.21308967
46	0xbe073cfc	-0.13206857
47	0x3d2fecd7	0.042950477
48	0x3dc9dc3c	0.098564595
49	0xbdd63265	-0.10458831
50	0x3d0f8a4a	0.035043992
51	0xbe717074	-0.23578054
52	0xbe44936c	-0.19196862
53	0x3e461305	0.19343193
54	0xbdbc19d4	-0.09184614
55	0xbcb606fe	-0.022220131
56	0xbdee97c7	-0.11650043
57	0x3e747b9a	0.23875275
58	0x3e32337a	0.17402449
59	0x3e716b1d	0.23576017
60	0xbe101b15	-0.14072831
61	0x3d47948c	0.04872565
62	0x3e06ba3b	0.13156979
63	0x3e0a9281	0.1353245

blocks.0.mlp.2.weight f4 [16, 64]
0	0xbd8f969d	-0.07011149
1	0xbd24fff4	-0.04028316
2	0x3db9fdd5	0.09081618
3	0xbdb0c29b	-0.08630868
4	0xbdcb66f6	-0.099317476
5	0xbd846ff6	-0.06466667
6	0xbcfa688d	-0.030567432
7	0xbdbcbdca	-0.09215887
8	0x3d7dd064	0.061966315
9	0xbd4b5baf	-0.049647983
10	0x3d1ef56c	0.03880827
11	0xbdb366b2	-0.08759822
12	0xbce01ebd	-0.027358407
13	0x3c0d70b3	0.008632827
14	0xbd138217	-0.036012735
15	0x3daafbad	0.083487846
16	0xbe02f311	-0.12788035
17	0x3be4833e	0.006973653
18	0xbdc09067	-0.094025426
19	0x3c1fb0be	0.009746728
20	0xbdb7ac45	-0.08968405
21	0x3d62b2a3	0.055346143
22	0xbdb528f2	-0.088457
23	0x3dfb2987	0.1226378
24	0x3a628ef6	0.00086425187
25	0xbd1e9604	-0.038717285
26	0xbdb363e8	-0.0875929
27	0xbdd0edad	-0.10201583
28	0xbbf7e221	-0.0075647985
29	0xbd7ab8ee	-0.06121152
30	0xbc953e82	-0.018218283
31	0xbd6a9ea3	-0.057280194
32	0xbdb1b0c9	-0.08676297
33	0xbdb61c78	-0.08892149
34	0xbd6f76c9	-0.05846289
35	0xbd3fd6ec	-0.046835825
36	0x3dbe313e	0.09286736
37	0xbce51e62	-0.02796859
38	0xbd847506	-0.06467633
39	0x3da6b3bd	0.08139751
40	0x3d831b4d	0.064016916
41	0x3d8e6a78	0.06953901
42	0xbdd3cd3a	-0.10341878
43	0x3ccacd2d	0.024756039
44	0x3dd133ba	0.10214944
45	0x3dee67a5	0.116408624
46	0x3d93aa8e	0.07210265
47	0x3dae8f82	0.08523466
48	0xbcf047ee	-0.029331174
49	0x3c8b1323	0.016976899
50	0x3ccd612d	0.025070751
51	0x3a59bd98	0.0008306145
52	0x3b9ecfc5	0.0048465454
53	0xbde2c93d	-0.110735394
54	0xbd7cfab7	-0.061762538
55	0x3d27daf0	0.04098028
56	0xbdae3da7	-0.08507853
57	0xbd96a3f1	-0.07355488
58	0x3d8aa635	0.06769983
59	0x3dbe51b0	0.092929244
60	0x3c001b51	0.007819013
61	0x3dc36399	0.09540481
62	0xbcd4cff2	-0.025978062
63	0x3d6cd56c	0.057820722
64	0x3a9af69a	0.001182276
65	0xbd6f8571	-0.05847687
66	0xbbf376ba	-0.007429925
67	0xbd5c1cc0	-0.053738356
68	0xbdfdd32d	-0.12393794
69	0xbd1676bc	-0.036734328
70	0xbda1cc18	-0.07900256
71	0x3ca0b12b	0.01961573
72	0x3d12f01a	0.03587351
73	0x3d952333	0.07282104
74	0x3cc41b86	0.023938905
75	0xbd4d4ecf	-0.050123986
76	0x3d0d4a23	0.03449453
77	0xba6f9431	-0.00091392087
78	0x3dc8a690	0.09797394
79	0x3c2d7b3f	0.010588466
80	0xbd654da0	-0.055982232
81	0xbc30a4ca	-0.010781476
82	0x3c8c4b4f	0.017125754
83	0xbd51ffd8	-0.051269382
84	0x3e08e39d	0.13368078
85	0xbd85cc8d	-0.065331556
86	0xbe0ac207	-0.13550578
87	0x3d54438e	0.051822238
88	0x3dc190dd	0.094514586
89	0xbce8f039	-0.02843486
90	0x3df8a0cc	0.121400446
91	0xbd27bf3d	-0.040953863
92	0xbe0ae1aa	-0.13562647
93	0x3c97baa3	0.018521613
94	0x3de89fc7	0.113586
95	0xbdee99cc	-0.11650428
96	0xbdb46984	-0.08809188
97	0x3d8cfb1e	0.06883834
98	0xbdbe2d59	-0.09285993
99	0xbdb35c08	-0.08757788
100	0xbc02cdaf	-0.007983609
101	0x3cdd7da2	0.027037445
102	0xbdb5afde	-0.08871435
103	0x3d8ee25b	0.06976768
104	0xbe031f39	-0.12804879
105	0xbda55377	-0.0807256
106	0xbd63836c	-0.055545256
107	0xbd47f968	-0.048821837
108	0x3da764bd	0.08173511
109	0xbc9297db	-0.017894676
110	0x3d8af104	0.06784251
111	0x3dcabd8f	0.09899437
112	0x3def8177	0.11694615
113	0x3d1d7289	0.038439307
114	0xbd898782	-0.06715299
115	0xbcb71f0e	-0.022353675
116	0x3dccdb68	0.10002786
117	0x3ce4d656	0.027934235
118	0xbdd44fbf	-0.10366773
119	0xbd82e412	-0.06391157
120	0x3d67085e	0.056404464
121	0x3cd57fde	0.026061948
122	0xbd9d0bc1	-0.076682575
123	0x3c8f46b7	0.017489774
124	0xbdc5942d	-0.09647403
125	0xbcde8633	-0.0271636
126	0xbd8f3e92	-0.06994356
127	0x3cd77dcb	0.0263051
128	0xbda2233c	-0.07916877
129	0x3d405bc9	0.046962533
130	0xbd8863f3	-0.06659689
131	0xbc34230e	-0.010994686
132	0x3d503bd2	0.0508383
133	0xbdbeffc9	-0.09326131
134	0x3d02d13e	0.03193783
135	0x3d954a59	0.07289571
136	0xbd19160d	-0.037374545
137	0x3dbf3004	0.0933533
138	0xbd2e4632	-0.042547412
139	0xbdae35ca	-0.08506353
140	0xbd89916d	-0.06717191
141	0x3d0a2cfc	0.033734307
142	0x3c40552c	0.011739057
143	0xbd5c899b	-0.05384217
144	0xbdc89e5b	-0.09795829
145	0x3bf2fe61	0.0074155782
146	0x3c8e26cc	0.017352484
147	0xbc2b8336	-0.010468295
148	0x3d9bce7d	0.07607744
149	0x3dcd2001	0.1001587
150	0xbc2b85ce	-0.010468913
151	0xbd96ae04	-0.073574096
152	0xbdae2eb9	-0.085050054
153	0xbcad8c8a	-0.021185178
154	0xbddd08b6	-0.10792677
155	0xbdea160c	-0.11429986
156	0xbcaec719	-0.021335172
157	0xbd8dd100	-0.06924629
158	0xbde522f1	-0.11188305
159	0xbd956c55	-0.07296053
160	0x3dd02892	0.10163988
161	0xbc8c726e	-0.017144408
162	0x3ce3aa72	0.027791236
163	0xbd052bb7	-0.032512393
164	0xbd3a7f8a	-0.045531787
165	0xbdaef1e6	-0.08542232
166	0x3ad5ca9a	0.001631099
167	0xbd96d0f4	-0.073640734
168	0xbd486494	-0.048924044
169	0x3c84fe02	0.016234402
170	0xbe0f3506	-0.1398507
171	0x3dcc6c6d	0.09981618
172	0x3d37682d	0.044777084
173	0x3d9ee914	0.077593
174	0xbdbe00f3	-0.09277525
175	0x3cbbc2d8	0.022920057
176	0x3d312a71	0.043253366
177	0xbd56d069	-0.05244485
178	0x3da078a5	0.07835511
179	0xbd214648	-0.039373666
180	0x3dec9709	0.11552245
181	0x3dc548c2	0.09633018
182	0x3df74f43	0.12075665
183	0xbc8e5b62	-0.01737756
184	0xbcc91168	-0.024544433
185	0x3dd60359	0.10449857
186	0x3ccb79db	0.024838379
187	0x3d6e7566	0.05821743
188	0xbde5846c	-0.11206898
189	0x3d79306e	0.0608372
190	0x3d56bf5e	0.052428596
191	0xbc6f3c6b	-0.014601807
192	0x3d9b1470	0.075722575
193	0x3cd85814	0.026409186
194	0xbd1a20cd	-0.037628938
195	0x3c7dedaf	0.015498563
196	0x3dce3924	0.100694925
197	0xbce40beb	-0.027837714
198	0x3a78a830	0.0009485511
199	0x3e0e7c87	0.13914691
200	0xbdbe49c0	-0.092914104
201	0xbd33ffe3	-0.043945204
202	0xbda0d483	-0.078530334
203	0xbc9fe5dc	-0.019518785
204	0xbd02d917	-0.031945314
205	0x3df8d707	0.12150388
206	0xbde08ed5	-0.10964743
207	0x3d5449ee	0.051828317
208	0x3e0f86d3	0.14016275
209	0x3d97cc9c	0.07412073
210	0xbc0003f9	-0.007813447
211	0x3c64d352	0.013966398
212	0x3da5124e	0.08060132
213	0xbdde9a6c	-0.108692974
214	0xbca0b805	-0.019618997
215	0xbcd710af	-0.026253073
216	0xbc6d66fe	-0.014489887
217	0xbd68c470	-0.056827962
218	0x3cec8aff	0.028874872
219	0xbca1f483	-0.019769913
220	0x3dd64d2a	0.104639366
221	0x3db7cef6	0.089750215
222	0xbd82f410	-0.063942075
223	0xbd96b0e6	-0.073579594
224	0xbd3fd2b7	-0.046831813
225	0xbdbc060d	-0.091808416
226	0xbde71afe	-0.11284445
227	0xbd22c3fb	-0.039737683
228	0x3cd09bed	0.025464976
229	0x3e086847	0.13321029
230	0x3d3f176d	0.0466532
231	0xbce84b26	-0.028356146
232	0xbce98c65	-0.028509328
233	0xbcf24cac	-0.029577576
234	0xbd520176	-0.051270925
235	0xbd3f6620	-0.046728253
236	0xbdcd69ce	-0.10029946
237	0xbd6c8ff7	-0.057754483
238	0x3d3f8a60	0.046762824
239	0x3dbafa46	0.09129767
240	0x3ddb4411	0.10706342
241	0x3e156080	0.14587593
242	0x3d3d7790	0.0462566
243	0xbd2842fd	-0.04107951
244	0xba0ea259	-0.0005441062
245	0x3de75c0a	0.11296852
246	0x3dc1e5f3	0.094676875
247	0x3d866576	0.06562321
248	0xbdda8a3b	-0.106708966
249	0x3cc5749b	0.024103453
250	0xbd158b81	-0.036509994
251	0x3dd3e106	0.10345654
252	0x3dbe7c50	0.093010545
253	0xbdae7b3e	-0.085196
254	0x3d99a060	0.07501292
255	0xbdb494a4	-0.088174134

blocks.0.mlp.2.bias f4 [16]
0	0x3dc21b58	0.09477872
1	0xbe000be2	-0.12504533
2	0xbcdf7b40	-0.02728045
3	0xbca5d5ab	-0.020243486
4	0xbdf56ef6	-0.11984055
5	0x3d65a381	0.056064133
6	0x3d8f9ffe	0.07012938
7	0xbd6eb7a8	-0.058280617
8	0xbc20c74b	-0.00981314
9	0x3d43847f	0.04773378
10	0xbd189011	-0.037246767
11	0xbd1c5970	-0.03817123
12	0xbd4b6dc0	-0.049665213
13	0xbcbc3b8e	-0.022977617
14	0xbe00551d	-0.12532468
15	0xbced7a2c	-0.02898892

blocks.1.norm1.weight f4 [16]
0	0x3f7e2a82	0.9928361
1	0x3f81ff60	1.0156059
2	0x3f839a0d	1.0281388
3	0x3f7c2e15	0.98507816
4	0x3f7a28f2	0.9771873
5	0x3f816236	1.0108097
6	0x3f7aa60a	0.97909606
7	0x3f812f43	1.0092548
8	0x3f7de498	0.9917693
9	0x3f815da1	1.0106698
10	0x3f81248d	1.008928
11	0x3f7bc749	0.9835096
12	0x3f80d73d	1.0065686
13	0x3f815ddb	1.0106767
14	0x3f7f1eba	0.9965626
15	0x3f823e7e	1.0175321

blocks.1.norm1.bias f4 [16]
0	0xbc93a53e	-0.01802313
1	0xbc0fc3d3	-0.0087747155
2	0x3bd617a0	0.006533578
3	0x3cb373cc	0.021905802
4	0xbaeaba21	-0.0017908254
5	0xbae2ad4a	-0.0017294076
6	0xbc74dd83	-0.014945391
7	0x3c143ec2	0.009048166
8	0xbb2749f1	-0.002552625
9	0xbc00fb29	-0.007872381
10	0xbb89f96a	-0.0042106407
11	0xbbe75458	-0.007059615
12	0xbbd94013	-0.0066299527
13	0x3c0ea7b5	0.008706977
14	0xb9293dd4	-0.00016140129
15	0x3c9d36e0	0.019191206

blocks.1.norm2.weight f4 [16]
0	0x3f803f6c	1.0019355
1	0x3f7d9959	0.99062115
2	0x3f8042b0	1.0020351
3	0x3f7ce594	0.9878781
4	0x3f7d6412	0.9898082
5	0x3f812aa7	1.0091141
6	0x3f814b84	1.010117
7	0x3f826eab	1.0190023
8	0x3f80213f	1.0010146
9	0x3f83045d	1.0235707
10	0x3f7d3535	0.9890931
11	0x3f7f7788	0.99791765
12	0x3f7f4bf9	0.997253
13	0x3f803bd8	1.0018263
14	0x3f7eebb5	0.9957841
15	0x3f805310	1.0025349

blocks.1.norm2.bias f4 [16]
0	0x3b1970ca	0.0023413175
1	0xbc5b7583	-0.013394716
2	0xbb41ce6e	-0.0029572505
3	0xbc1723e2	-0.009224864
4	0x3c5a7a4f	0.013334825
5	0xbad4828e	-0.0016213225
6	0x3b6c7b8a	0.0036084377
7	0xbb30d9b6	-0.0026985235
8	0xbb4966db	-0.0030731473
9	0xbba8def0	-0.0051535293
10	0x3bb602f2	0.0055545503
11	0xbb4914c1	-0.0030682536
12	0x3bdf159b	0.0068079955
13	0x3b2051ae	0.0024462747
14	0x38f014aa	0.00011447941
15	0x3a1c363d	0.000595901

blocks.1.mlp.0.weight f4 [64, 16]
0	0x3e147548	0.14497864
1	0x3d363507	0.044484165
2	0xbdd196e6	-0.1023386
3	0xbdb2098b	-0.086932264
4	0xbdf95819	-0.121750064
5	0xbd053564	-0.03252162
6	0xbdec0d62	-0.1152599
7	0xbe2b4ad8	-0.1672777
8	0xbe2d229e	-0.16907737
9	0xbe35c905	-0.17752464
10	0x3d5f3fd5	0.054504234
11	0x3e27ffbc	0.16406149
12	0x3e7f6b90	0.24943376
13	0x3e3b385e	0.18283221
14	0x3e339df0	0.17540717
15	0xbdd1cbff	-0.10243987
16	0xbd809180	-0.06277752
17	0xbc008cea	-0.0078460965
18	0xbe7b39d8	-0.24533784
19	0x3e5ae7e3	0.2137752
20	0xbe4c7e1e	-0.19969985
21	0xbe61592e	-0.22006676
22	0xbdb92ee8	-0.0904215
23	0x3e333f84	0.17504698
24	0x3e5373f7	0.20649706
25	0x3e307d03	0.17235188
26	0xbd05c47b	-0.03265808
27	0xbe5fda70	-0.21860671
28	0xbe6d1afb	-0.23154823
29	0x3d58b936	0.052911006
30	0xbdad68db	-0.08467265
31	0xbd38e783	-0.04514266
32	0x3d253880	0.040337086
33	0xbe849cc9	-0.25900868
34	0xbd85c3f5	-0.065315165
35	0xbd09cdca	-0.03364352
36	0x3e020dab	0.12700526
37	0xbe70100c	-0.23443621
38	0x3d550147	0.05200317
39	0x3c21785f	0.009855359
40	0x3e2a9fb8	0.1666249
41	0x3debcecb	0.11514052
42	0xbd52964f	-0.051412877
43	0x3e8029f1	0.25032
44	0x3e3d3b5e	0.18479678
45	0xbdd0d922	-0.10197665
46	0xbd9ea2ef	-0.07745921
47	0x3e15ca50	0.14627957
48	0x3e14252d	0.14467306
49	0x3e6301af	0.22168611
50	0x3db574c9	0.088601656
51	0x3c8089b7	0.015690668
52	0xbd78ac29	-0.06071106
53	0xbdeb3597	-0.11484831
54	0x3d13ef46	0.03611686
55	0x3b825bf5	0.0039782473
56	0x3bd496ae	0.006487689
57	0xbe5aa0ae	-0.21350357
58	0xbcbe88f3	-0.023258662
59	0x3e0907ae	0.13381836
60	0xbcadfffe	-0.02124023
61	0xbe4db9cd	-0.20090409
62	0xbddb738d	-0.10715399
63	0xbb5b83f7	-0.0033495405
64	0xbe2095aa	-0.15682092
65	0xbe7a4068	-0.24438632
66	0x3e358916	0.17728075
67	0xbe13d993	-0.14438467
68	0xbe7b633c	-0.24549574
69	0xbd375763	-0.044761073
70	0xbd11c889	-0.035591636
71	0x3e774553	0.24147539
72	0x3e6bc7fc	0.23025507
73	0xbb9b0bbc	-0.0047316235
74	0xbdb7c05e	-0.08972238
75	0xbdfae48a	-0.122506216
76	0xbe66a117	-0.22522388
77	0x3e2be6c4	0.16787249
78	0xbe39dfe0	-0.18151808
79	0xbe6bc47a	-0.23024169
80	0x3e3d4779	0.18484296
81	0xbe4c4c7f	-0.19951056
82	0xbdf8660e	-0.121288404
83	0x3e287dc7	0.1645423
84	0x3e3f7212	0.18695858
85	0xbe5a4b3f	-0.21317767
86	0x3e77c58d	0.24196453
87	0x3e6d84c6	0.2319518
88	0xbdfa372c	-0.122175545
89	0xbe2d103b	-0.16900723
90	0x3c8cf98b	0.017208835
91	0xbe4655f7	-0.1936873
92	0x3e10679f	0.14102028
93	0xbccf7c88	-0.025327936
94	0x3d5c42f6	0.053774796
95	0xbe1e8e00	-0.15483856
96	0x3d6236bd	0.055227984
97	0x3e58fb86	0.21189699
98	0x3e8377b2	0.25677258
99	0x3e43a29f	0.19105004
100	0x3a042fc7	0.000504252
101	0x3cb9ca19	0.022679375
102	0xbd6b12ce	-0.05739098
103	0xbe695f71	-0.22790314
104	0x3d637d49	0.055539403
105	0x3e554724	0.20827919
106	0xbe64268c	-0.2228033
107	0xbe715a88	-0.23569691
108	0x3e4da0ab	0.20080821
109	0x3e0c1d4a	0.13683048
110	0x3dd1bcd5	0.10241095
111	0xbe403444	-0.18769938
112	0x3d0bf974	0.034173444
113	0x3d94c8f8	0.07264894
114	0x3e5aa721	0.21352817
115	0x3d9cd194	0.07657161
116	0x3e2e3be7	0.17015038
117	0xbe3ab6ef	-0.18233846
118	0xbdfb1eb2	-0.12261714
119	0xbdd6285e	-0.10456918
120	0x3e3327bb	0.17495625
121	0xbd07f825	-0.033195633
122	0x3e1757bc	0.14779562
123	0x3db2443b	0.0870442
124	0x3e2f3bff	0.1711273
125	0x3c8f0761	0.017459573
126	0x3df5a277	0.11993878
127	0xbc381a2a	-0.011236707
128	0xbe2585c0	-0.16164303
129	0xbe47000b	-0.1943361
130	0x3e4ab559	0.19795741
131	0x3e3bbd86	0.18334016
132	0xbd9118b5	-0.070847906
133	0x3e404446	0.18776044
134	0x3d54011c	0.05175887
135	0xbd27e0dd	-0.04098593
136	0xbe2c241c	-0.1681065
137	0xbe162a98	-0.14664686
138	0xbe36bf80	-0.17846489
139	0x3d7aa049	0.061188016
140	0xbe73ff2c	-0.23827809
141	0x3e1e2a65	0.1544586
142	0x3d8e8dc1	0.06960631
143	0xbe421e9e	-0.18956992
144	0xbe4cfdbd	-0.20018668
145	0x3e6bc841	0.2302561
146	0xbe2dc39d	-0.16969152
147	0x3de87fc8	0.11352497
148	0xbd0193fc	-0.03163527
149	0x3e36a4bc	0.17836279
150	0xbba091e8	-0.004900206
151	0xbe0d9200	-0.13825226
152	0xbe15d4d2	-0.14631966
153	0x3e099a9a	0.13437882
154	0xbc9250f6	-0.01786087
155	0xbe7a5cc3	-0.24449448
156	0x3cdc604a	0.026901383
157	0xbe0855f2	-0.13314036
158	0xbd39f3af	-0.04539841
159	0x3e20d747	0.15707122
160	0x3d2a2cda	0.04154668
161	0x3e118ea3	0.14214568
162	0x3d3491e2	0.044084437
163	0xbdf2e3b5	-0.11859838
164	0xbe6c77a1	-0.2309251
165	0x3d1bfff4	0.038085893
166	0xbe102b25	-0.14078958
167	0xbc72d19e	-0.014820484
168	0xbd67285b	-0.05643497
169	0x3cc11099	0.023567485
170	0x3e344c48	0.17607224
171	0x3cebcf3d	0.028785342
172	0xbe695d46	-0.22789487
173	0xbe7a75cc	-0.24458998
174	0x3dbf4a31	0.09340323
175	0xbe2859e0	-0.16440535
176	0x3e495a76	0.19663414
177	0x3c23a6ae	0.00998847
178	0xbd831c2f	-0.0640186
179	0xbcf93534	-0.030420877
180	0x3de29fcb	0.11065634
181	0x3cb29819	0.021801041
182	0x3dde0ab1	0.10841883
183	0x3dc56c1e	0.09639762
184	0x3df1f752	0.11814751
185	0x3e259ebe	0.16173837
186	0x3db7943b	0.089638196
187	0x3dd95980	0.10612774
188	0xbd6552a8	-0.05598703
189	0x3d4a1899	0.049339864
190	0xbe03c052	-0.12866333
191	0xbb4d7fb4	-0.0031356635
192	0xbe013021	-0.12616016
193	0x3cc18529	0.023623066
194	0xbe6e26d2	-0.23256996
195	0xbe4d512a	-0.20050493
196	0x3ddfc885	0.10926918
197	0x3e024fa6	0.12725696
198	0x3d7c5fbd	0.06161474
199	0xbe117c95	-0.1420768
200	0x3d0c5d9b	0.034268957
201	0x3c295401	0.0103349695
202	0xbe7c8940	-0.24661732
203	0x3e116d91	0.14201953
204	0x3dad7ef7	0.08471482
205	0x3e166745	0.14687832
206	0x3e1d0ce0	0.15336943
207	0xbd3abc24	-0.04558958
208	0xbe0f492b	-0.13992755
209	0xbdd2e06e	-0.10296713
210	0x3e72ca7d	0.23710056
211	0x3dd61b54	0.10454431
212	0xbe0e3665	-0.13887937
213	0xbe0ee588	-0.13954747
214	0x3ccaff28	0.024779871
215	0x3e190781	0.14944269
216	0xbe74235e	-0.23841617
217	0xbdc37a41	-0.095448025
218	0xbde9b780	-0.11411953
219	0xbda0f651	-0.07859481
220	0xbe4f3bf2	-0.20237711
221	0xbe30cdb2	-0.17265967
222	0x3da1d1ad	0.079013206
223	0xbcffc8ae	-0.031223621
224	0x3d9d7b84	0.07689574
225	0x3dc4d98f	0.096118085
226	0xbe4502ee	-0.19239399
227	0x3e4db966	0.20090255
228	0x3e5b8a86	0.21439561
229	0xbe6512b2	-0.22370413
230	0xbcca5bbd	-0.024701947
231	0x3e12da9b	0.14341204
232	0x3e061cd2	0.13096932
233	0xbdee904f	-0.116486184
234	0xbcc10b56	-0.023564976
235	0xbe03876c	-0.12844628
236	0xbe030cd8	-0.12797868
237	0x3e508581	0.20363428
238	0x3d5d84f9	0.05408189
239	0x3e81d3df	0.25356957
240	0x3dec2918	0.115312755
241	0x3e55f214	0.20893127
242	0x3e696477	0.2279223
243	0xbe1e52e2	-0.15461305
244	0xbe2c2dc9	-0.1681434
245	0x3e845c5b	0.25851712
246	0xbe491751	-0.19637801
247	0x3e6f8a06	0.23392496
248	0x3e798f61	0.24371101
249	0xbd225932	-0.039635845
250	0x3dc21b40	0.09477854
251	0xbdc4c4c2	-0.09607841
252	0x3e1372ef	0.14399312
253	0x3da58624	0.08082226
254	0xbd8fe001	-0.07025147
255	0xbdb07dc7	-0.0861774

blocks.1.mlp.0.bias f4 [64]
0	0xbdf00e41	-0.11721469
1	0xbe2c247b	-0.16810791
2	0xbd829fd8	-0.06378144
3	0x3bfdc19f	0.0077440287
4	0x3d909332	0.07059325
5	0x3d973026	0.073822305
6	0xbe3ba477	-0.18324457
7	0x3d998c72	0.07497491
8	0x3e0aef83	0.13567929
9	0xbdf77971	-0.1208371
10	0xbe395432	-0.18098524
11	0x3cf55040	0.029945493
12	0xbe3674c8	-0.17817986
13	0xbd864f53	-0.06558099
14	0xbe6903eb	-0.22755401
15	0x3e7c6384	0.24647337
16	0xbcfad0b2	-0.030617092
17	0xbe18388a	-0.14865318
18	0x3d141831	0.036155883
19	0x3dff72b8	0.12473053
20	0xbe492db8	-0.19646347
21	0xbe242242	-0.16028693
22	0x3da62463	0.08112409
23	0x3dd4fc44	0.10399678
24	0x3e44602f	0.19177316
25	0xbe6cd5d1	-0.2312844
26	0x3e5ffb5a	0.21873227
27	0xbe5f7a69	-0.2182404
28	0x3e619870	0.22030807
29	0xbb9dbd18	-0.0048138015
30	0x3d9144bb	0.070931874
31	0x3c94f190	0.018181592
32	0x3e2c0551	0.16798903
33	0xbe03f1fc	-0.12885278
34	0xbe46df7e	-0.19421193
35	0xbe4d373b	-0.200406
36	0x3e79049c	0.24318165
37	0x3e495f47	0.19665252
38	0xbe29d7ae	-0.16586182
39	0xbaecc0a6	-0.0018062785
40	0xbdfe4b48	-0.124167025
41	0xbd7c98a5	-0.06166901
42	0xbd842ebf	-0.064542286
43	0xbe3cab3a	-0.18424693
44	0x3e2539db	0.16135351
45	0xbe576994	-0.21036369
46	0xbd3420f9	-0.043976758
47	0x3e186a3c	0.14884275
48	0xbd91fe54	-0.07128587
49	0x3df56bc5	0.11983446
50	0xbe889422	-0.26675516
51	0x3db42bcf	0.08797418
52	0x3e428fc2	0.19000152
53	0x3e0cf5b8	0.1376561
54	0xbdcab77e	-0.098982796
55	0x3e0c89a0	0.13724375
56	0x3e5cbf84	0.21557432
57	0xbe934ce8	-0.28769612
58	0xbe4b6146	-0.19861326
59	0x3e4f9723	0.20272498
60	0xbe1635ae	-0.14668915
61	0xbe3440cf	-0.17602848
62	0xbcdc76a4	-0.026912041
63	0xbdd00a82	-0.10158254

blocks.1.mlp.2.weight f4 [16, 64]
0	0xbdf75ad8	-0.12077874
1	0xbda8204d	-0.08209286
2	0xbd4d0a09	-0.0500584
3	0xbdc59bd4	-0.096488625
4	0xbd9b642c	-0.07587466
5	0x3d8f416e	0.069949016
6	0xbdb6bee7	-0.089231305
7	0x3d91484a	0.07093866
8	0x3e1f7d29	0.15575089
9	0xbd2c25cc	-0.042028233
10	0x3a00a95c	0.0004908049
11	0xbde73356	-0.112890884
12	0xbd5635e8	-0.052297503
13	0xbd596a15	-0.053079683
14	0xbd469253	-0.04847939
15	0x3daa0758	0.08302182
16	0xbd72dec3	-0.059294473
17	0xbdcfea5f	-0.101521246
18	0x3c6ecaf8	0.014574759
19	0x3cc8c2b4	0.024506904
20	0xbda1c4ad	-0.07898841
21	0xbdac4794	-0.0841209
22	0x3db76690	0.08955109
23	0xbdc2bfc7	-0.09509235
24	0x3e088b84	0.13334471
25	0xb8728188	-5.781793e-05
26	0xbd8472d6	-0.06467216
27	0xbd083a37	-0.033258643
28	0x3ce4600a	0.027877826
29	0xbd893315	-0.06699196
30	0x3cc61356	0.024179142
31	0xbcd4b5cd	-0.025965596
32	0x3bbdd450	0.005793132
33	0x3db3dce0	0.08782363
34	0xbd9d5b71	-0.07683457
35	0xbcace44d	-0.021104956
36	0xbdc71f24	-0.097227365
37	0xbd135e6e	-0.035978727
38	0x3c733f1e	0.014846591
39	0x3d8b71cf	0.06808817
40	0x3beac490	0.0071645454
41	0xbdc5788d	-0.09642134
42	0x3dbb1c3d	0.091362454
43	0xbd96848b	-0.07349499
44	0xbe14bcfd	-0.14525218
45	0x3d5e8f7e	0.054336064
46	0x3d68b30f	0.05681139
47	0x3d3a00bc	0.045410857
48	0x3d51edeb	0.051252287
49	0x3de8965e	0.11356805
50	0xbd838a29	-0.06422836
51	0x3d9c974b	0.07646044
52	0xbdf5953c	-0.11991355
53	0xbe07ded4	-0.13268596
54	0xbcde9485	-0.027170429
55	0x3d90dd28	0.07073432
56	0xbe163457	-0.14668404
57	0x3d986c7b	0.07442566
58	0xbd90a923	-0.0706351
59	0x3d26b92e	0.040703945
60	0xbdd446d6	-0.103650734
61	0xbd24718d	-0.040147353
62	0xbd8d83af	-0.06909882
63	0xbda257a9	-0.07926876
64	0x3d25b6e8	0.040457636
65	0x3dcb931e	0.0994017
66	0x3d23a0a2	0.039948113
67	0x3d3bfbff	0.04589462
68	0xbd553103	-0.052048694
69	0xbdb08feb	-0.086212
70	0x3de12e53	0.10995164
71	0x3b90ed68	0.0044228323
72	0xbd80bb07	-0.06285673
73	0x3ddde62b	0.10834917
74	0x3dbc81b5	0.09204427
75	0x3cbb1ed9	0.022841858
76	0x3d94086d	0.072281696
77	0xbc8dd4dd	-0.017313415
78	0xbd96ae87	-0.07357507
79	0x3e0382f7	0.12842928
80	0x3ca88cf3	0.020575022
81	0x3cc259d1	0.023724468
82	0x3de9ab89	0.11409671
83	0xbc445845	-0.011983936
84	0xbde937f4	-0.11387625
85	0x3d37260e	0.044714026
86	0x3d5f01f9	0.05444524
87	0xbd895c78	-0.0670709
88	0xbd9631ab	-0.07333692
89	0x3d2c5d1a	0.042080976
90	0x3cc16feb	0.023612937
91	0x3d001b68	0.031276137
92	0xbdc1f049	-0.09469659
93	0x3a9345d6	0.0011236023
94	0x3dcb9071	0.099396594
95	0xbdce65b6	-0.100779936
96	0xbdad74cf	-0.08469545
97	0xbd96a9dd	-0.073566176
98	0xbdd4c4e0	-0.103891134
99	0xbd9e24a1	-0.0772183
100	0x3de48dd1	0.11159862
101	0x3d24efab	0.040267628
102	0x3a38d8b6	0.00070513354
103	0x3db9da4e	0.090748414
104	0x3d885e52	0.06658615
105	0xbe1aacb3	-0.15104942
106	0x3d2ea3bf	0.04263663
107	0x3d092a07	0.033487346
108	0xbda1c0aa	-0.07898076
109	0xbd90698f	-0.07051384
110	0x3c67eb20	0.014155179
111	0xbd5e8112	-0.05432231
112	0x3d7a1d57	0.061063137
113	0x3bfb75c1	0.0076739495
114	0xbd48ee0d	-0.049055148
115	0x3ccac35f	0.024751363
116	0xbe057f10	-0.13036752
117	0xbaec3213	-0.0018020294
118	0xbdb0be43	-0.086300395
119	0x3d45db21	0.04830468
120	0x3d17edc8	0.037092
121	0x3c0c4d7e	0.008563397
122	0x3dda0c75	0.10646907
123	0xbda8d83d	-0.08244369
124	0xbddfe572	-0.10932435
125	0x3dc76530	0.09736097
126	0x3d484596	0.048894487
127	0x3d8da5c2	0.069163814
128	0x39873912	0.00025791727
129	0xbdca621c	-0.09881994
130	0x3e008312	0.1255
131	0x3ba7eb4b	0.0051244847
132	0x3d9e56d6	0.077314064
133	0xbd1dea11	-0.0385533
134	0xbd4d2a99	-0.050089452
135	0xbddf4307	-0.10901456
136	0x3d537a7e	0.05163049
137	0x3d3f7826	0.04674544
138	0x3b9536b6	0.004553641
139	0x3c177521	0.009244234
140	0xbd710305	-0.05884077
141	0x3b42c7f8	0.0029721241
142	0xbc1c5a71	-0.009543047
143	0xbbe2370c	-0.0069035348
144	0xbdcd5e41	-0.10027743
145	0x3d3a03c8	0.045413762
146	0xbdedd5cf	-0.116130464
147	0x3d96facd	0.07372055
148	0xbd6822b1	-0.05667371
149	0xbcd22e07	-0.025656713
150	0xbc4b9e03	-0.01242781
151	0xbdbce4d6	-0.092233345
152	0xbcc2d1a1	-0.0237816
153	0xbd14fca9	-0.036373768
154	0xbddbaafd	-0.10725973
155	0xbdd50889	-0.104020186
156	0x3d499f42	0.049224146
157	0x3c57e7d3	0.01317783
158	0xbae289fe	-0.0017283557
159	0xbbaa70de	-0.005201443
160	0xbd7ff9df	-0.062494155
161	0xbe0a0eb4	-0.13482171
162	0xbddf84e0	-0.10914016
163	0x3d3800de	0.044922702
164	0xbdaf6a98	-0.08565253
165	0x3d970f62	0.07375981
166	0xbc90644c	-0.01762595
167	0x3de9dfe6	0.11419658
168	0xbc54341e	-0.012951879
169	0x3df481c5	0.11938814
170	0xbe01120b	-0.12604539
171	0x3dab1576	0.08353703
172	0x3c1df6d7	0.009641371
173	0xbd2bbf3a	-0.041930415
174	0xbdd61ca3	-0.10454681
175	0xbd0496ae	-0.03237026
176	0xbd597022	-0.053085454
177	0x3dd72d76	0.10506718
178	0x3c265dbf	0.010154187
179	0x3d81511e	0.063143
180	0xbdae1212	-0.084995404
181	0xbd92b7e6	-0.07163982
182	0xbd0d58e4	-0.0345086
183	0xb7f45de3	-2.9130786e-05
184	0xbd2e6ce0	-0.0425843
185	0x3d61d898	0.0551382
186	0xbd9e9eca	-0.0774513
187	0xbdd4c204	-0.10388568
188	0x3dc7425c	0.09729454
189	0xbc1a868c	-0.009431493
190	0xbbcb7797	-0.0062093246
191	0x3c756d1d	0.014979628
192	0x3e03c463	0.12867884
193	0xbd32cab0	-0.04365033
194	0x3db7a03a	0.08966108
195	0x3d8a3aa8	0.06749469
196	0x3e07bb34	0.13255006
197	0xbd97ad66	-0.0740612
198	0x3d04a7e0	0.03238666
199	0x3dbf82ac	0.093510956
200	0xbd9dd689	-0.07706935
201	0x3d5cb7b2	0.053886123
202	0xbd46eb83	-0.048564445
203	0x3d583081	0.052780632
204	0xbd85ae78	-0.06527418
205	0x3d15546a	0.036457457
206	0x3d369fee	0.044586115
207	0x3c3207f5	0.010866155
208	0xbdd7df6f	-0.105406635
209	0xbd7bc3e1	-0.0614661
210	0x3d855b43	0.065115474
211	0xbd420bdd	-0.047374595
212	0x3dbffc92	0.09374346
213	0xbc1546b1	-0.009111092
214	0x3e032b21	0.12809421
215	0xbe07d28a	-0.13263908
216	0x3cc44c6c	0.023962222
217	0x3d12d1ae	0.035844497
218	0x3bddbdd7	0.0067670154
219	0xbdd0ce2d	-0.10195575
220	0xbd6115a5	-0.054952282
221	0x3d41da65	0.047327418
222	0xbd2b93c8	-0.041888982
223	0xbe049cdd	-0.12950464
224	0x3d8c9a33	0.06865349
225	0x3dfc0f0e	0.12307559
226	0xbdf1bd30	-0.11803663
227	0xbd9f0095	-0.07763783
228	0xbd9fafcc	-0.077972025
229	0x3d176dfd	0.036970127
230	0x3da5cd97	0.08095854
231	0xbdd75148	-0.1051355
232	0xbb61b2ca	-0.0034438842
233	0x3d1f0936	0.038827144
234	0x3ca5683a	0.0201913
235	0x3dba4a19	0.09096164
236	0xbd9846e3	-0.074353956
237	0xbd25368d	-0.040335227
238	0x3d6f1c0b	0.058376353
239	0xbdae0db4	-0.084987074
240	0xbd489529	-0.048970375
241	0xbd6de8f3	-0.058083486
242	0x3de1265e	0.10993646
243	0x3d025441	0.031818632
244	0xbddc06b0	-0.10743463
245	0xbcc58df1	-0.024115534
246	0xbc02217f	-0.007942556
247	0xbe069935	-0.13144381
248	0xbd1c0bbc	-0.03809713
249	0x3e0ab268	0.13544619
250	0xbd975e96	-0.07391088
251	0xbc3b0777	-0.011415354
252	0x3e05abd1	0.13053824
253	0xbd97970f	-0.07401859
254	0xbbabfd17	-0.0052486765
255	0x3e0354e3	0.1282535

blocks.1.mlp.2.bias f4 [16]
0	0xbc179914	-0.009252805
1	0xbd4a74e3	-0.049427878
2	0x3de79577	0.11307805
3	0xbdecafe6	-0.115569875
4	0xbdad8faa	-0.08474667
5	0x3db74040	0.089478016
6	0xbd19f49a	-0.037586786
7	0x3da38729	0.07984764
8	0x3decf614	0.11570373
9	0xbd6a59c5	-0.057214517
10	0x3dcd4566	0.10023002
11	0xbd9276dd	-0.071515776
12	0xbd33ee91	-0.043928687
13	0xbce61f2f	-0.028091041
14	0x3db026d9	0.086011596
15	0xbd12c3f8	-0.03583142

blocks.2.norm1.weight f4 [16]
0	0x3f7cc40e	0.98736656
1	0x3f7f938f	0.9983453
2	0x3f81aa6f	1.0130137
3	0x3f7d1e48	0.9887433
4	0x3f81b7dc	1.0134234
5	0x3f864a97	1.0491513
6	0x3f76eda8	0.96456385
7	0x3f814193	1.0098137
8	0x3f7fc4ed	0.9990986
9	0x3f817c34	1.0116029
10	0x3f80f608	1.0075083
11	0x3f79343c	0.9734533
12	0x3f7e97bc	0.9945028
13	0x3f82a6a9	1.0207111
14	0x3f840526	1.0314071
15	0x3f80c75c	1.006084

blocks.2.norm1.bias f4 [16]
0	0xbcc644c5	-0.024202714
1	0xbbe9affe	-0.0071315756
2	0xba1c67be	-0.00059663865
3	0x3ce21931	0.027599903
4	0xbbeeb41f	-0.0072846557
5	0x3b2de8f9	0.0026536568
6	0xbc545438	-0.012959532
7	0x3bbd248c	0.005772179
8	0xb8abc3ee	-8.19041e-05
9	0xbbb2a69d	-0.0054519908
10	0x3b46447d	0.0030253225
11	0xbc9363bc	-0.017991893
12	0x3bb08842	0.005387337
13	0x3c3e7aa4	0.0116259195
14	0x3c306950	0.010767296
15	0x3aa97e3b	0.0012931296

blocks.2.norm2.weight f4 [16]
0	0x3f80ad3c	1.0052867
1	0x3f807efe	1.0038755
2	0x3f80792b	1.0036978
3	0x3f804f8d	1.0024277
4	0x3f817a4b	1.0115446
5	0x3f827ab6	1.0193698
6	0x3f7a4dbc	0.97774863
7	0x3f7f9830	0.99841595
8	0x3f811a61	1.0086175
9	0x3f80ae3c	1.0053172
10	0x3f7c16f4	0.98472524
11	0x3f81f97b	1.015426
12	0x3f7ffdad	0.99996454
13	0x3f7f5382	0.997368
14	0x3f7f741c	0.99786544
15	0x3f80921c	1.0044589
